{
  "nodes": [
    {
      "op": "null", 
      "name": "data", 
      "inputs": []
    }, 
    {
      "op": "null", 
      "name": "conv1_7x7_s2_weight", 
      "attr": {
        "kernel": "(7, 7)", 
        "no_bias": "False", 
        "num_filter": "64", 
        "pad": "(3, 3)", 
        "stride": "(2, 2)"
      }, 
      "inputs": []
    }, 
    {
      "op": "null", 
      "name": "conv1_7x7_s2_bias", 
      "attr": {
        "kernel": "(7, 7)", 
        "no_bias": "False", 
        "num_filter": "64", 
        "pad": "(3, 3)", 
        "stride": "(2, 2)"
      }, 
      "inputs": []
    }, 
    {
      "op": "Convolution", 
      "name": "conv1_7x7_s2", 
      "attr": {
        "kernel": "(7, 7)", 
        "no_bias": "False", 
        "num_filter": "64", 
        "pad": "(3, 3)", 
        "stride": "(2, 2)"
      }, 
      "inputs": [[0, 0, 0], [1, 0, 0], [2, 0, 0]]
    }, 
    {
      "op": "Activation", 
      "name": "conv1_relu_7x7", 
      "attr": {"act_type": "relu"}, 
      "inputs": [[3, 0, 0]]
    }, 
    {
      "op": "Pooling", 
      "name": "pool1_3x3_s2", 
      "attr": {
        "kernel": "(3, 3)", 
        "pad": "(0, 0)", 
        "pool_type": "max", 
        "pooling_convention": "full", 
        "stride": "(2, 2)"
      }, 
      "inputs": [[4, 0, 0]]
    }, 
    {
      "op": "LRN", 
      "name": "pool1_norm1", 
      "attr": {
        "alpha": "0.0001", 
        "beta": "0.75", 
        "knorm": "1.0", 
        "nsize": "5"
      }, 
      "inputs": [[5, 0, 0]]
    }, 
    {
      "op": "null", 
      "name": "conv2_3x3_reduce_weight", 
      "attr": {
        "kernel": "(1, 1)", 
        "no_bias": "False", 
        "num_filter": "64", 
        "pad": "(0, 0)", 
        "stride": "(1, 1)"
      }, 
      "inputs": []
    }, 
    {
      "op": "null", 
      "name": "conv2_3x3_reduce_bias", 
      "attr": {
        "kernel": "(1, 1)", 
        "no_bias": "False", 
        "num_filter": "64", 
        "pad": "(0, 0)", 
        "stride": "(1, 1)"
      }, 
      "inputs": []
    }, 
    {
      "op": "Convolution", 
      "name": "conv2_3x3_reduce", 
      "attr": {
        "kernel": "(1, 1)", 
        "no_bias": "False", 
        "num_filter": "64", 
        "pad": "(0, 0)", 
        "stride": "(1, 1)"
      }, 
      "inputs": [[6, 0, 0], [7, 0, 0], [8, 0, 0]]
    }, 
    {
      "op": "Activation", 
      "name": "conv2_relu_3x3_reduce", 
      "attr": {"act_type": "relu"}, 
      "inputs": [[9, 0, 0]]
    }, 
    {
      "op": "null", 
      "name": "conv2_3x3_weight", 
      "attr": {
        "kernel": "(3, 3)", 
        "no_bias": "False", 
        "num_filter": "192", 
        "pad": "(1, 1)", 
        "stride": "(1, 1)"
      }, 
      "inputs": []
    }, 
    {
      "op": "null", 
      "name": "conv2_3x3_bias", 
      "attr": {
        "kernel": "(3, 3)", 
        "no_bias": "False", 
        "num_filter": "192", 
        "pad": "(1, 1)", 
        "stride": "(1, 1)"
      }, 
      "inputs": []
    }, 
    {
      "op": "Convolution", 
      "name": "conv2_3x3", 
      "attr": {
        "kernel": "(3, 3)", 
        "no_bias": "False", 
        "num_filter": "192", 
        "pad": "(1, 1)", 
        "stride": "(1, 1)"
      }, 
      "inputs": [[10, 0, 0], [11, 0, 0], [12, 0, 0]]
    }, 
    {
      "op": "Activation", 
      "name": "conv2_relu_3x3", 
      "attr": {"act_type": "relu"}, 
      "inputs": [[13, 0, 0]]
    }, 
    {
      "op": "LRN", 
      "name": "conv2_norm2", 
      "attr": {
        "alpha": "0.0001", 
        "beta": "0.75", 
        "knorm": "1.0", 
        "nsize": "5"
      }, 
      "inputs": [[14, 0, 0]]
    }, 
    {
      "op": "Pooling", 
      "name": "pool2_3x3_s2", 
      "attr": {
        "kernel": "(3, 3)", 
        "pad": "(0, 0)", 
        "pool_type": "max", 
        "pooling_convention": "full", 
        "stride": "(2, 2)"
      }, 
      "inputs": [[15, 0, 0]]
    }, 
    {
      "op": "null", 
      "name": "inception_3a_1x1_weight", 
      "attr": {
        "kernel": "(1, 1)", 
        "no_bias": "False", 
        "num_filter": "64", 
        "pad": "(0, 0)", 
        "stride": "(1, 1)"
      }, 
      "inputs": []
    }, 
    {
      "op": "null", 
      "name": "inception_3a_1x1_bias", 
      "attr": {
        "kernel": "(1, 1)", 
        "no_bias": "False", 
        "num_filter": "64", 
        "pad": "(0, 0)", 
        "stride": "(1, 1)"
      }, 
      "inputs": []
    }, 
    {
      "op": "Convolution", 
      "name": "inception_3a_1x1", 
      "attr": {
        "kernel": "(1, 1)", 
        "no_bias": "False", 
        "num_filter": "64", 
        "pad": "(0, 0)", 
        "stride": "(1, 1)"
      }, 
      "inputs": [[16, 0, 0], [17, 0, 0], [18, 0, 0]]
    }, 
    {
      "op": "Activation", 
      "name": "inception_3a_relu_1x1", 
      "attr": {"act_type": "relu"}, 
      "inputs": [[19, 0, 0]]
    }, 
    {
      "op": "null", 
      "name": "inception_3a_3x3_reduce_weight", 
      "attr": {
        "kernel": "(1, 1)", 
        "no_bias": "False", 
        "num_filter": "96", 
        "pad": "(0, 0)", 
        "stride": "(1, 1)"
      }, 
      "inputs": []
    }, 
    {
      "op": "null", 
      "name": "inception_3a_3x3_reduce_bias", 
      "attr": {
        "kernel": "(1, 1)", 
        "no_bias": "False", 
        "num_filter": "96", 
        "pad": "(0, 0)", 
        "stride": "(1, 1)"
      }, 
      "inputs": []
    }, 
    {
      "op": "Convolution", 
      "name": "inception_3a_3x3_reduce", 
      "attr": {
        "kernel": "(1, 1)", 
        "no_bias": "False", 
        "num_filter": "96", 
        "pad": "(0, 0)", 
        "stride": "(1, 1)"
      }, 
      "inputs": [[16, 0, 0], [21, 0, 0], [22, 0, 0]]
    }, 
    {
      "op": "Activation", 
      "name": "inception_3a_relu_3x3_reduce", 
      "attr": {"act_type": "relu"}, 
      "inputs": [[23, 0, 0]]
    }, 
    {
      "op": "null", 
      "name": "inception_3a_3x3_weight", 
      "attr": {
        "kernel": "(3, 3)", 
        "no_bias": "False", 
        "num_filter": "128", 
        "pad": "(1, 1)", 
        "stride": "(1, 1)"
      }, 
      "inputs": []
    }, 
    {
      "op": "null", 
      "name": "inception_3a_3x3_bias", 
      "attr": {
        "kernel": "(3, 3)", 
        "no_bias": "False", 
        "num_filter": "128", 
        "pad": "(1, 1)", 
        "stride": "(1, 1)"
      }, 
      "inputs": []
    }, 
    {
      "op": "Convolution", 
      "name": "inception_3a_3x3", 
      "attr": {
        "kernel": "(3, 3)", 
        "no_bias": "False", 
        "num_filter": "128", 
        "pad": "(1, 1)", 
        "stride": "(1, 1)"
      }, 
      "inputs": [[24, 0, 0], [25, 0, 0], [26, 0, 0]]
    }, 
    {
      "op": "Activation", 
      "name": "inception_3a_relu_3x3", 
      "attr": {"act_type": "relu"}, 
      "inputs": [[27, 0, 0]]
    }, 
    {
      "op": "null", 
      "name": "inception_3a_5x5_reduce_weight", 
      "attr": {
        "kernel": "(1, 1)", 
        "no_bias": "False", 
        "num_filter": "16", 
        "pad": "(0, 0)", 
        "stride": "(1, 1)"
      }, 
      "inputs": []
    }, 
    {
      "op": "null", 
      "name": "inception_3a_5x5_reduce_bias", 
      "attr": {
        "kernel": "(1, 1)", 
        "no_bias": "False", 
        "num_filter": "16", 
        "pad": "(0, 0)", 
        "stride": "(1, 1)"
      }, 
      "inputs": []
    }, 
    {
      "op": "Convolution", 
      "name": "inception_3a_5x5_reduce", 
      "attr": {
        "kernel": "(1, 1)", 
        "no_bias": "False", 
        "num_filter": "16", 
        "pad": "(0, 0)", 
        "stride": "(1, 1)"
      }, 
      "inputs": [[16, 0, 0], [29, 0, 0], [30, 0, 0]]
    }, 
    {
      "op": "Activation", 
      "name": "inception_3a_relu_5x5_reduce", 
      "attr": {"act_type": "relu"}, 
      "inputs": [[31, 0, 0]]
    }, 
    {
      "op": "null", 
      "name": "inception_3a_5x5_weight", 
      "attr": {
        "kernel": "(5, 5)", 
        "no_bias": "False", 
        "num_filter": "32", 
        "pad": "(2, 2)", 
        "stride": "(1, 1)"
      }, 
      "inputs": []
    }, 
    {
      "op": "null", 
      "name": "inception_3a_5x5_bias", 
      "attr": {
        "kernel": "(5, 5)", 
        "no_bias": "False", 
        "num_filter": "32", 
        "pad": "(2, 2)", 
        "stride": "(1, 1)"
      }, 
      "inputs": []
    }, 
    {
      "op": "Convolution", 
      "name": "inception_3a_5x5", 
      "attr": {
        "kernel": "(5, 5)", 
        "no_bias": "False", 
        "num_filter": "32", 
        "pad": "(2, 2)", 
        "stride": "(1, 1)"
      }, 
      "inputs": [[32, 0, 0], [33, 0, 0], [34, 0, 0]]
    }, 
    {
      "op": "Activation", 
      "name": "inception_3a_relu_5x5", 
      "attr": {"act_type": "relu"}, 
      "inputs": [[35, 0, 0]]
    }, 
    {
      "op": "Pooling", 
      "name": "inception_3a_pool", 
      "attr": {
        "kernel": "(3, 3)", 
        "pad": "(1, 1)", 
        "pool_type": "max", 
        "pooling_convention": "full", 
        "stride": "(1, 1)"
      }, 
      "inputs": [[16, 0, 0]]
    }, 
    {
      "op": "null", 
      "name": "inception_3a_pool_proj_weight", 
      "attr": {
        "kernel": "(1, 1)", 
        "no_bias": "False", 
        "num_filter": "32", 
        "pad": "(0, 0)", 
        "stride": "(1, 1)"
      }, 
      "inputs": []
    }, 
    {
      "op": "null", 
      "name": "inception_3a_pool_proj_bias", 
      "attr": {
        "kernel": "(1, 1)", 
        "no_bias": "False", 
        "num_filter": "32", 
        "pad": "(0, 0)", 
        "stride": "(1, 1)"
      }, 
      "inputs": []
    }, 
    {
      "op": "Convolution", 
      "name": "inception_3a_pool_proj", 
      "attr": {
        "kernel": "(1, 1)", 
        "no_bias": "False", 
        "num_filter": "32", 
        "pad": "(0, 0)", 
        "stride": "(1, 1)"
      }, 
      "inputs": [[37, 0, 0], [38, 0, 0], [39, 0, 0]]
    }, 
    {
      "op": "Activation", 
      "name": "inception_3a_relu_pool_proj", 
      "attr": {"act_type": "relu"}, 
      "inputs": [[40, 0, 0]]
    }, 
    {
      "op": "Concat", 
      "name": "inception_3a_output", 
      "attr": {"num_args": "4"}, 
      "inputs": [[20, 0, 0], [28, 0, 0], [36, 0, 0], [41, 0, 0]]
    }, 
    {
      "op": "null", 
      "name": "inception_3b_1x1_weight", 
      "attr": {
        "kernel": "(1, 1)", 
        "no_bias": "False", 
        "num_filter": "128", 
        "pad": "(0, 0)", 
        "stride": "(1, 1)"
      }, 
      "inputs": []
    }, 
    {
      "op": "null", 
      "name": "inception_3b_1x1_bias", 
      "attr": {
        "kernel": "(1, 1)", 
        "no_bias": "False", 
        "num_filter": "128", 
        "pad": "(0, 0)", 
        "stride": "(1, 1)"
      }, 
      "inputs": []
    }, 
    {
      "op": "Convolution", 
      "name": "inception_3b_1x1", 
      "attr": {
        "kernel": "(1, 1)", 
        "no_bias": "False", 
        "num_filter": "128", 
        "pad": "(0, 0)", 
        "stride": "(1, 1)"
      }, 
      "inputs": [[42, 0, 0], [43, 0, 0], [44, 0, 0]]
    }, 
    {
      "op": "Activation", 
      "name": "inception_3b_relu_1x1", 
      "attr": {"act_type": "relu"}, 
      "inputs": [[45, 0, 0]]
    }, 
    {
      "op": "null", 
      "name": "inception_3b_3x3_reduce_weight", 
      "attr": {
        "kernel": "(1, 1)", 
        "no_bias": "False", 
        "num_filter": "128", 
        "pad": "(0, 0)", 
        "stride": "(1, 1)"
      }, 
      "inputs": []
    }, 
    {
      "op": "null", 
      "name": "inception_3b_3x3_reduce_bias", 
      "attr": {
        "kernel": "(1, 1)", 
        "no_bias": "False", 
        "num_filter": "128", 
        "pad": "(0, 0)", 
        "stride": "(1, 1)"
      }, 
      "inputs": []
    }, 
    {
      "op": "Convolution", 
      "name": "inception_3b_3x3_reduce", 
      "attr": {
        "kernel": "(1, 1)", 
        "no_bias": "False", 
        "num_filter": "128", 
        "pad": "(0, 0)", 
        "stride": "(1, 1)"
      }, 
      "inputs": [[42, 0, 0], [47, 0, 0], [48, 0, 0]]
    }, 
    {
      "op": "Activation", 
      "name": "inception_3b_relu_3x3_reduce", 
      "attr": {"act_type": "relu"}, 
      "inputs": [[49, 0, 0]]
    }, 
    {
      "op": "null", 
      "name": "inception_3b_3x3_weight", 
      "attr": {
        "kernel": "(3, 3)", 
        "no_bias": "False", 
        "num_filter": "192", 
        "pad": "(1, 1)", 
        "stride": "(1, 1)"
      }, 
      "inputs": []
    }, 
    {
      "op": "null", 
      "name": "inception_3b_3x3_bias", 
      "attr": {
        "kernel": "(3, 3)", 
        "no_bias": "False", 
        "num_filter": "192", 
        "pad": "(1, 1)", 
        "stride": "(1, 1)"
      }, 
      "inputs": []
    }, 
    {
      "op": "Convolution", 
      "name": "inception_3b_3x3", 
      "attr": {
        "kernel": "(3, 3)", 
        "no_bias": "False", 
        "num_filter": "192", 
        "pad": "(1, 1)", 
        "stride": "(1, 1)"
      }, 
      "inputs": [[50, 0, 0], [51, 0, 0], [52, 0, 0]]
    }, 
    {
      "op": "Activation", 
      "name": "inception_3b_relu_3x3", 
      "attr": {"act_type": "relu"}, 
      "inputs": [[53, 0, 0]]
    }, 
    {
      "op": "null", 
      "name": "inception_3b_5x5_reduce_weight", 
      "attr": {
        "kernel": "(1, 1)", 
        "no_bias": "False", 
        "num_filter": "32", 
        "pad": "(0, 0)", 
        "stride": "(1, 1)"
      }, 
      "inputs": []
    }, 
    {
      "op": "null", 
      "name": "inception_3b_5x5_reduce_bias", 
      "attr": {
        "kernel": "(1, 1)", 
        "no_bias": "False", 
        "num_filter": "32", 
        "pad": "(0, 0)", 
        "stride": "(1, 1)"
      }, 
      "inputs": []
    }, 
    {
      "op": "Convolution", 
      "name": "inception_3b_5x5_reduce", 
      "attr": {
        "kernel": "(1, 1)", 
        "no_bias": "False", 
        "num_filter": "32", 
        "pad": "(0, 0)", 
        "stride": "(1, 1)"
      }, 
      "inputs": [[42, 0, 0], [55, 0, 0], [56, 0, 0]]
    }, 
    {
      "op": "Activation", 
      "name": "inception_3b_relu_5x5_reduce", 
      "attr": {"act_type": "relu"}, 
      "inputs": [[57, 0, 0]]
    }, 
    {
      "op": "null", 
      "name": "inception_3b_5x5_weight", 
      "attr": {
        "kernel": "(5, 5)", 
        "no_bias": "False", 
        "num_filter": "96", 
        "pad": "(2, 2)", 
        "stride": "(1, 1)"
      }, 
      "inputs": []
    }, 
    {
      "op": "null", 
      "name": "inception_3b_5x5_bias", 
      "attr": {
        "kernel": "(5, 5)", 
        "no_bias": "False", 
        "num_filter": "96", 
        "pad": "(2, 2)", 
        "stride": "(1, 1)"
      }, 
      "inputs": []
    }, 
    {
      "op": "Convolution", 
      "name": "inception_3b_5x5", 
      "attr": {
        "kernel": "(5, 5)", 
        "no_bias": "False", 
        "num_filter": "96", 
        "pad": "(2, 2)", 
        "stride": "(1, 1)"
      }, 
      "inputs": [[58, 0, 0], [59, 0, 0], [60, 0, 0]]
    }, 
    {
      "op": "Activation", 
      "name": "inception_3b_relu_5x5", 
      "attr": {"act_type": "relu"}, 
      "inputs": [[61, 0, 0]]
    }, 
    {
      "op": "Pooling", 
      "name": "inception_3b_pool", 
      "attr": {
        "kernel": "(3, 3)", 
        "pad": "(1, 1)", 
        "pool_type": "max", 
        "pooling_convention": "full", 
        "stride": "(1, 1)"
      }, 
      "inputs": [[42, 0, 0]]
    }, 
    {
      "op": "null", 
      "name": "inception_3b_pool_proj_weight", 
      "attr": {
        "kernel": "(1, 1)", 
        "no_bias": "False", 
        "num_filter": "64", 
        "pad": "(0, 0)", 
        "stride": "(1, 1)"
      }, 
      "inputs": []
    }, 
    {
      "op": "null", 
      "name": "inception_3b_pool_proj_bias", 
      "attr": {
        "kernel": "(1, 1)", 
        "no_bias": "False", 
        "num_filter": "64", 
        "pad": "(0, 0)", 
        "stride": "(1, 1)"
      }, 
      "inputs": []
    }, 
    {
      "op": "Convolution", 
      "name": "inception_3b_pool_proj", 
      "attr": {
        "kernel": "(1, 1)", 
        "no_bias": "False", 
        "num_filter": "64", 
        "pad": "(0, 0)", 
        "stride": "(1, 1)"
      }, 
      "inputs": [[63, 0, 0], [64, 0, 0], [65, 0, 0]]
    }, 
    {
      "op": "Activation", 
      "name": "inception_3b_relu_pool_proj", 
      "attr": {"act_type": "relu"}, 
      "inputs": [[66, 0, 0]]
    }, 
    {
      "op": "Concat", 
      "name": "inception_3b_output", 
      "attr": {"num_args": "4"}, 
      "inputs": [[46, 0, 0], [54, 0, 0], [62, 0, 0], [67, 0, 0]]
    }, 
    {
      "op": "Pooling", 
      "name": "pool3_3x3_s2", 
      "attr": {
        "kernel": "(3, 3)", 
        "pad": "(0, 0)", 
        "pool_type": "max", 
        "pooling_convention": "full", 
        "stride": "(2, 2)"
      }, 
      "inputs": [[68, 0, 0]]
    }, 
    {
      "op": "null", 
      "name": "inception_4a_1x1_weight", 
      "attr": {
        "kernel": "(1, 1)", 
        "no_bias": "False", 
        "num_filter": "192", 
        "pad": "(0, 0)", 
        "stride": "(1, 1)"
      }, 
      "inputs": []
    }, 
    {
      "op": "null", 
      "name": "inception_4a_1x1_bias", 
      "attr": {
        "kernel": "(1, 1)", 
        "no_bias": "False", 
        "num_filter": "192", 
        "pad": "(0, 0)", 
        "stride": "(1, 1)"
      }, 
      "inputs": []
    }, 
    {
      "op": "Convolution", 
      "name": "inception_4a_1x1", 
      "attr": {
        "kernel": "(1, 1)", 
        "no_bias": "False", 
        "num_filter": "192", 
        "pad": "(0, 0)", 
        "stride": "(1, 1)"
      }, 
      "inputs": [[69, 0, 0], [70, 0, 0], [71, 0, 0]]
    }, 
    {
      "op": "Activation", 
      "name": "inception_4a_relu_1x1", 
      "attr": {"act_type": "relu"}, 
      "inputs": [[72, 0, 0]]
    }, 
    {
      "op": "null", 
      "name": "inception_4a_3x3_reduce_weight", 
      "attr": {
        "kernel": "(1, 1)", 
        "no_bias": "False", 
        "num_filter": "96", 
        "pad": "(0, 0)", 
        "stride": "(1, 1)"
      }, 
      "inputs": []
    }, 
    {
      "op": "null", 
      "name": "inception_4a_3x3_reduce_bias", 
      "attr": {
        "kernel": "(1, 1)", 
        "no_bias": "False", 
        "num_filter": "96", 
        "pad": "(0, 0)", 
        "stride": "(1, 1)"
      }, 
      "inputs": []
    }, 
    {
      "op": "Convolution", 
      "name": "inception_4a_3x3_reduce", 
      "attr": {
        "kernel": "(1, 1)", 
        "no_bias": "False", 
        "num_filter": "96", 
        "pad": "(0, 0)", 
        "stride": "(1, 1)"
      }, 
      "inputs": [[69, 0, 0], [74, 0, 0], [75, 0, 0]]
    }, 
    {
      "op": "Activation", 
      "name": "inception_4a_relu_3x3_reduce", 
      "attr": {"act_type": "relu"}, 
      "inputs": [[76, 0, 0]]
    }, 
    {
      "op": "null", 
      "name": "inception_4a_3x3_weight", 
      "attr": {
        "kernel": "(3, 3)", 
        "no_bias": "False", 
        "num_filter": "208", 
        "pad": "(1, 1)", 
        "stride": "(1, 1)"
      }, 
      "inputs": []
    }, 
    {
      "op": "null", 
      "name": "inception_4a_3x3_bias", 
      "attr": {
        "kernel": "(3, 3)", 
        "no_bias": "False", 
        "num_filter": "208", 
        "pad": "(1, 1)", 
        "stride": "(1, 1)"
      }, 
      "inputs": []
    }, 
    {
      "op": "Convolution", 
      "name": "inception_4a_3x3", 
      "attr": {
        "kernel": "(3, 3)", 
        "no_bias": "False", 
        "num_filter": "208", 
        "pad": "(1, 1)", 
        "stride": "(1, 1)"
      }, 
      "inputs": [[77, 0, 0], [78, 0, 0], [79, 0, 0]]
    }, 
    {
      "op": "Activation", 
      "name": "inception_4a_relu_3x3", 
      "attr": {"act_type": "relu"}, 
      "inputs": [[80, 0, 0]]
    }, 
    {
      "op": "null", 
      "name": "inception_4a_5x5_reduce_weight", 
      "attr": {
        "kernel": "(1, 1)", 
        "no_bias": "False", 
        "num_filter": "16", 
        "pad": "(0, 0)", 
        "stride": "(1, 1)"
      }, 
      "inputs": []
    }, 
    {
      "op": "null", 
      "name": "inception_4a_5x5_reduce_bias", 
      "attr": {
        "kernel": "(1, 1)", 
        "no_bias": "False", 
        "num_filter": "16", 
        "pad": "(0, 0)", 
        "stride": "(1, 1)"
      }, 
      "inputs": []
    }, 
    {
      "op": "Convolution", 
      "name": "inception_4a_5x5_reduce", 
      "attr": {
        "kernel": "(1, 1)", 
        "no_bias": "False", 
        "num_filter": "16", 
        "pad": "(0, 0)", 
        "stride": "(1, 1)"
      }, 
      "inputs": [[69, 0, 0], [82, 0, 0], [83, 0, 0]]
    }, 
    {
      "op": "Activation", 
      "name": "inception_4a_relu_5x5_reduce", 
      "attr": {"act_type": "relu"}, 
      "inputs": [[84, 0, 0]]
    }, 
    {
      "op": "null", 
      "name": "inception_4a_5x5_weight", 
      "attr": {
        "kernel": "(5, 5)", 
        "no_bias": "False", 
        "num_filter": "48", 
        "pad": "(2, 2)", 
        "stride": "(1, 1)"
      }, 
      "inputs": []
    }, 
    {
      "op": "null", 
      "name": "inception_4a_5x5_bias", 
      "attr": {
        "kernel": "(5, 5)", 
        "no_bias": "False", 
        "num_filter": "48", 
        "pad": "(2, 2)", 
        "stride": "(1, 1)"
      }, 
      "inputs": []
    }, 
    {
      "op": "Convolution", 
      "name": "inception_4a_5x5", 
      "attr": {
        "kernel": "(5, 5)", 
        "no_bias": "False", 
        "num_filter": "48", 
        "pad": "(2, 2)", 
        "stride": "(1, 1)"
      }, 
      "inputs": [[85, 0, 0], [86, 0, 0], [87, 0, 0]]
    }, 
    {
      "op": "Activation", 
      "name": "inception_4a_relu_5x5", 
      "attr": {"act_type": "relu"}, 
      "inputs": [[88, 0, 0]]
    }, 
    {
      "op": "Pooling", 
      "name": "inception_4a_pool", 
      "attr": {
        "kernel": "(3, 3)", 
        "pad": "(1, 1)", 
        "pool_type": "max", 
        "pooling_convention": "full", 
        "stride": "(1, 1)"
      }, 
      "inputs": [[69, 0, 0]]
    }, 
    {
      "op": "null", 
      "name": "inception_4a_pool_proj_weight", 
      "attr": {
        "kernel": "(1, 1)", 
        "no_bias": "False", 
        "num_filter": "64", 
        "pad": "(0, 0)", 
        "stride": "(1, 1)"
      }, 
      "inputs": []
    }, 
    {
      "op": "null", 
      "name": "inception_4a_pool_proj_bias", 
      "attr": {
        "kernel": "(1, 1)", 
        "no_bias": "False", 
        "num_filter": "64", 
        "pad": "(0, 0)", 
        "stride": "(1, 1)"
      }, 
      "inputs": []
    }, 
    {
      "op": "Convolution", 
      "name": "inception_4a_pool_proj", 
      "attr": {
        "kernel": "(1, 1)", 
        "no_bias": "False", 
        "num_filter": "64", 
        "pad": "(0, 0)", 
        "stride": "(1, 1)"
      }, 
      "inputs": [[90, 0, 0], [91, 0, 0], [92, 0, 0]]
    }, 
    {
      "op": "Activation", 
      "name": "inception_4a_relu_pool_proj", 
      "attr": {"act_type": "relu"}, 
      "inputs": [[93, 0, 0]]
    }, 
    {
      "op": "Concat", 
      "name": "inception_4a_output", 
      "attr": {"num_args": "4"}, 
      "inputs": [[73, 0, 0], [81, 0, 0], [89, 0, 0], [94, 0, 0]]
    }, 
    {
      "op": "null", 
      "name": "inception_4b_1x1_weight", 
      "attr": {
        "kernel": "(1, 1)", 
        "no_bias": "False", 
        "num_filter": "160", 
        "pad": "(0, 0)", 
        "stride": "(1, 1)"
      }, 
      "inputs": []
    }, 
    {
      "op": "null", 
      "name": "inception_4b_1x1_bias", 
      "attr": {
        "kernel": "(1, 1)", 
        "no_bias": "False", 
        "num_filter": "160", 
        "pad": "(0, 0)", 
        "stride": "(1, 1)"
      }, 
      "inputs": []
    }, 
    {
      "op": "Convolution", 
      "name": "inception_4b_1x1", 
      "attr": {
        "kernel": "(1, 1)", 
        "no_bias": "False", 
        "num_filter": "160", 
        "pad": "(0, 0)", 
        "stride": "(1, 1)"
      }, 
      "inputs": [[95, 0, 0], [96, 0, 0], [97, 0, 0]]
    }, 
    {
      "op": "Activation", 
      "name": "inception_4b_relu_1x1", 
      "attr": {"act_type": "relu"}, 
      "inputs": [[98, 0, 0]]
    }, 
    {
      "op": "null", 
      "name": "inception_4b_3x3_reduce_weight", 
      "attr": {
        "kernel": "(1, 1)", 
        "no_bias": "False", 
        "num_filter": "112", 
        "pad": "(0, 0)", 
        "stride": "(1, 1)"
      }, 
      "inputs": []
    }, 
    {
      "op": "null", 
      "name": "inception_4b_3x3_reduce_bias", 
      "attr": {
        "kernel": "(1, 1)", 
        "no_bias": "False", 
        "num_filter": "112", 
        "pad": "(0, 0)", 
        "stride": "(1, 1)"
      }, 
      "inputs": []
    }, 
    {
      "op": "Convolution", 
      "name": "inception_4b_3x3_reduce", 
      "attr": {
        "kernel": "(1, 1)", 
        "no_bias": "False", 
        "num_filter": "112", 
        "pad": "(0, 0)", 
        "stride": "(1, 1)"
      }, 
      "inputs": [[95, 0, 0], [100, 0, 0], [101, 0, 0]]
    }, 
    {
      "op": "Activation", 
      "name": "inception_4b_relu_3x3_reduce", 
      "attr": {"act_type": "relu"}, 
      "inputs": [[102, 0, 0]]
    }, 
    {
      "op": "null", 
      "name": "inception_4b_3x3_weight", 
      "attr": {
        "kernel": "(3, 3)", 
        "no_bias": "False", 
        "num_filter": "224", 
        "pad": "(1, 1)", 
        "stride": "(1, 1)"
      }, 
      "inputs": []
    }, 
    {
      "op": "null", 
      "name": "inception_4b_3x3_bias", 
      "attr": {
        "kernel": "(3, 3)", 
        "no_bias": "False", 
        "num_filter": "224", 
        "pad": "(1, 1)", 
        "stride": "(1, 1)"
      }, 
      "inputs": []
    }, 
    {
      "op": "Convolution", 
      "name": "inception_4b_3x3", 
      "attr": {
        "kernel": "(3, 3)", 
        "no_bias": "False", 
        "num_filter": "224", 
        "pad": "(1, 1)", 
        "stride": "(1, 1)"
      }, 
      "inputs": [[103, 0, 0], [104, 0, 0], [105, 0, 0]]
    }, 
    {
      "op": "Activation", 
      "name": "inception_4b_relu_3x3", 
      "attr": {"act_type": "relu"}, 
      "inputs": [[106, 0, 0]]
    }, 
    {
      "op": "null", 
      "name": "inception_4b_5x5_reduce_weight", 
      "attr": {
        "kernel": "(1, 1)", 
        "no_bias": "False", 
        "num_filter": "24", 
        "pad": "(0, 0)", 
        "stride": "(1, 1)"
      }, 
      "inputs": []
    }, 
    {
      "op": "null", 
      "name": "inception_4b_5x5_reduce_bias", 
      "attr": {
        "kernel": "(1, 1)", 
        "no_bias": "False", 
        "num_filter": "24", 
        "pad": "(0, 0)", 
        "stride": "(1, 1)"
      }, 
      "inputs": []
    }, 
    {
      "op": "Convolution", 
      "name": "inception_4b_5x5_reduce", 
      "attr": {
        "kernel": "(1, 1)", 
        "no_bias": "False", 
        "num_filter": "24", 
        "pad": "(0, 0)", 
        "stride": "(1, 1)"
      }, 
      "inputs": [[95, 0, 0], [108, 0, 0], [109, 0, 0]]
    }, 
    {
      "op": "Activation", 
      "name": "inception_4b_relu_5x5_reduce", 
      "attr": {"act_type": "relu"}, 
      "inputs": [[110, 0, 0]]
    }, 
    {
      "op": "null", 
      "name": "inception_4b_5x5_weight", 
      "attr": {
        "kernel": "(5, 5)", 
        "no_bias": "False", 
        "num_filter": "64", 
        "pad": "(2, 2)", 
        "stride": "(1, 1)"
      }, 
      "inputs": []
    }, 
    {
      "op": "null", 
      "name": "inception_4b_5x5_bias", 
      "attr": {
        "kernel": "(5, 5)", 
        "no_bias": "False", 
        "num_filter": "64", 
        "pad": "(2, 2)", 
        "stride": "(1, 1)"
      }, 
      "inputs": []
    }, 
    {
      "op": "Convolution", 
      "name": "inception_4b_5x5", 
      "attr": {
        "kernel": "(5, 5)", 
        "no_bias": "False", 
        "num_filter": "64", 
        "pad": "(2, 2)", 
        "stride": "(1, 1)"
      }, 
      "inputs": [[111, 0, 0], [112, 0, 0], [113, 0, 0]]
    }, 
    {
      "op": "Activation", 
      "name": "inception_4b_relu_5x5", 
      "attr": {"act_type": "relu"}, 
      "inputs": [[114, 0, 0]]
    }, 
    {
      "op": "Pooling", 
      "name": "inception_4b_pool", 
      "attr": {
        "kernel": "(3, 3)", 
        "pad": "(1, 1)", 
        "pool_type": "max", 
        "pooling_convention": "full", 
        "stride": "(1, 1)"
      }, 
      "inputs": [[95, 0, 0]]
    }, 
    {
      "op": "null", 
      "name": "inception_4b_pool_proj_weight", 
      "attr": {
        "kernel": "(1, 1)", 
        "no_bias": "False", 
        "num_filter": "64", 
        "pad": "(0, 0)", 
        "stride": "(1, 1)"
      }, 
      "inputs": []
    }, 
    {
      "op": "null", 
      "name": "inception_4b_pool_proj_bias", 
      "attr": {
        "kernel": "(1, 1)", 
        "no_bias": "False", 
        "num_filter": "64", 
        "pad": "(0, 0)", 
        "stride": "(1, 1)"
      }, 
      "inputs": []
    }, 
    {
      "op": "Convolution", 
      "name": "inception_4b_pool_proj", 
      "attr": {
        "kernel": "(1, 1)", 
        "no_bias": "False", 
        "num_filter": "64", 
        "pad": "(0, 0)", 
        "stride": "(1, 1)"
      }, 
      "inputs": [[116, 0, 0], [117, 0, 0], [118, 0, 0]]
    }, 
    {
      "op": "Activation", 
      "name": "inception_4b_relu_pool_proj", 
      "attr": {"act_type": "relu"}, 
      "inputs": [[119, 0, 0]]
    }, 
    {
      "op": "Concat", 
      "name": "inception_4b_output", 
      "attr": {"num_args": "4"}, 
      "inputs": [[99, 0, 0], [107, 0, 0], [115, 0, 0], [120, 0, 0]]
    }, 
    {
      "op": "null", 
      "name": "inception_4c_1x1_weight", 
      "attr": {
        "kernel": "(1, 1)", 
        "no_bias": "False", 
        "num_filter": "128", 
        "pad": "(0, 0)", 
        "stride": "(1, 1)"
      }, 
      "inputs": []
    }, 
    {
      "op": "null", 
      "name": "inception_4c_1x1_bias", 
      "attr": {
        "kernel": "(1, 1)", 
        "no_bias": "False", 
        "num_filter": "128", 
        "pad": "(0, 0)", 
        "stride": "(1, 1)"
      }, 
      "inputs": []
    }, 
    {
      "op": "Convolution", 
      "name": "inception_4c_1x1", 
      "attr": {
        "kernel": "(1, 1)", 
        "no_bias": "False", 
        "num_filter": "128", 
        "pad": "(0, 0)", 
        "stride": "(1, 1)"
      }, 
      "inputs": [[121, 0, 0], [122, 0, 0], [123, 0, 0]]
    }, 
    {
      "op": "Activation", 
      "name": "inception_4c_relu_1x1", 
      "attr": {"act_type": "relu"}, 
      "inputs": [[124, 0, 0]]
    }, 
    {
      "op": "null", 
      "name": "inception_4c_3x3_reduce_weight", 
      "attr": {
        "kernel": "(1, 1)", 
        "no_bias": "False", 
        "num_filter": "128", 
        "pad": "(0, 0)", 
        "stride": "(1, 1)"
      }, 
      "inputs": []
    }, 
    {
      "op": "null", 
      "name": "inception_4c_3x3_reduce_bias", 
      "attr": {
        "kernel": "(1, 1)", 
        "no_bias": "False", 
        "num_filter": "128", 
        "pad": "(0, 0)", 
        "stride": "(1, 1)"
      }, 
      "inputs": []
    }, 
    {
      "op": "Convolution", 
      "name": "inception_4c_3x3_reduce", 
      "attr": {
        "kernel": "(1, 1)", 
        "no_bias": "False", 
        "num_filter": "128", 
        "pad": "(0, 0)", 
        "stride": "(1, 1)"
      }, 
      "inputs": [[121, 0, 0], [126, 0, 0], [127, 0, 0]]
    }, 
    {
      "op": "Activation", 
      "name": "inception_4c_relu_3x3_reduce", 
      "attr": {"act_type": "relu"}, 
      "inputs": [[128, 0, 0]]
    }, 
    {
      "op": "null", 
      "name": "inception_4c_3x3_weight", 
      "attr": {
        "kernel": "(3, 3)", 
        "no_bias": "False", 
        "num_filter": "256", 
        "pad": "(1, 1)", 
        "stride": "(1, 1)"
      }, 
      "inputs": []
    }, 
    {
      "op": "null", 
      "name": "inception_4c_3x3_bias", 
      "attr": {
        "kernel": "(3, 3)", 
        "no_bias": "False", 
        "num_filter": "256", 
        "pad": "(1, 1)", 
        "stride": "(1, 1)"
      }, 
      "inputs": []
    }, 
    {
      "op": "Convolution", 
      "name": "inception_4c_3x3", 
      "attr": {
        "kernel": "(3, 3)", 
        "no_bias": "False", 
        "num_filter": "256", 
        "pad": "(1, 1)", 
        "stride": "(1, 1)"
      }, 
      "inputs": [[129, 0, 0], [130, 0, 0], [131, 0, 0]]
    }, 
    {
      "op": "Activation", 
      "name": "inception_4c_relu_3x3", 
      "attr": {"act_type": "relu"}, 
      "inputs": [[132, 0, 0]]
    }, 
    {
      "op": "null", 
      "name": "inception_4c_5x5_reduce_weight", 
      "attr": {
        "kernel": "(1, 1)", 
        "no_bias": "False", 
        "num_filter": "24", 
        "pad": "(0, 0)", 
        "stride": "(1, 1)"
      }, 
      "inputs": []
    }, 
    {
      "op": "null", 
      "name": "inception_4c_5x5_reduce_bias", 
      "attr": {
        "kernel": "(1, 1)", 
        "no_bias": "False", 
        "num_filter": "24", 
        "pad": "(0, 0)", 
        "stride": "(1, 1)"
      }, 
      "inputs": []
    }, 
    {
      "op": "Convolution", 
      "name": "inception_4c_5x5_reduce", 
      "attr": {
        "kernel": "(1, 1)", 
        "no_bias": "False", 
        "num_filter": "24", 
        "pad": "(0, 0)", 
        "stride": "(1, 1)"
      }, 
      "inputs": [[121, 0, 0], [134, 0, 0], [135, 0, 0]]
    }, 
    {
      "op": "Activation", 
      "name": "inception_4c_relu_5x5_reduce", 
      "attr": {"act_type": "relu"}, 
      "inputs": [[136, 0, 0]]
    }, 
    {
      "op": "null", 
      "name": "inception_4c_5x5_weight", 
      "attr": {
        "kernel": "(5, 5)", 
        "no_bias": "False", 
        "num_filter": "64", 
        "pad": "(2, 2)", 
        "stride": "(1, 1)"
      }, 
      "inputs": []
    }, 
    {
      "op": "null", 
      "name": "inception_4c_5x5_bias", 
      "attr": {
        "kernel": "(5, 5)", 
        "no_bias": "False", 
        "num_filter": "64", 
        "pad": "(2, 2)", 
        "stride": "(1, 1)"
      }, 
      "inputs": []
    }, 
    {
      "op": "Convolution", 
      "name": "inception_4c_5x5", 
      "attr": {
        "kernel": "(5, 5)", 
        "no_bias": "False", 
        "num_filter": "64", 
        "pad": "(2, 2)", 
        "stride": "(1, 1)"
      }, 
      "inputs": [[137, 0, 0], [138, 0, 0], [139, 0, 0]]
    }, 
    {
      "op": "Activation", 
      "name": "inception_4c_relu_5x5", 
      "attr": {"act_type": "relu"}, 
      "inputs": [[140, 0, 0]]
    }, 
    {
      "op": "Pooling", 
      "name": "inception_4c_pool", 
      "attr": {
        "kernel": "(3, 3)", 
        "pad": "(1, 1)", 
        "pool_type": "max", 
        "pooling_convention": "full", 
        "stride": "(1, 1)"
      }, 
      "inputs": [[121, 0, 0]]
    }, 
    {
      "op": "null", 
      "name": "inception_4c_pool_proj_weight", 
      "attr": {
        "kernel": "(1, 1)", 
        "no_bias": "False", 
        "num_filter": "64", 
        "pad": "(0, 0)", 
        "stride": "(1, 1)"
      }, 
      "inputs": []
    }, 
    {
      "op": "null", 
      "name": "inception_4c_pool_proj_bias", 
      "attr": {
        "kernel": "(1, 1)", 
        "no_bias": "False", 
        "num_filter": "64", 
        "pad": "(0, 0)", 
        "stride": "(1, 1)"
      }, 
      "inputs": []
    }, 
    {
      "op": "Convolution", 
      "name": "inception_4c_pool_proj", 
      "attr": {
        "kernel": "(1, 1)", 
        "no_bias": "False", 
        "num_filter": "64", 
        "pad": "(0, 0)", 
        "stride": "(1, 1)"
      }, 
      "inputs": [[142, 0, 0], [143, 0, 0], [144, 0, 0]]
    }, 
    {
      "op": "Activation", 
      "name": "inception_4c_relu_pool_proj", 
      "attr": {"act_type": "relu"}, 
      "inputs": [[145, 0, 0]]
    }, 
    {
      "op": "Concat", 
      "name": "inception_4c_output", 
      "attr": {"num_args": "4"}, 
      "inputs": [[125, 0, 0], [133, 0, 0], [141, 0, 0], [146, 0, 0]]
    }, 
    {
      "op": "null", 
      "name": "inception_4d_1x1_weight", 
      "attr": {
        "kernel": "(1, 1)", 
        "no_bias": "False", 
        "num_filter": "112", 
        "pad": "(0, 0)", 
        "stride": "(1, 1)"
      }, 
      "inputs": []
    }, 
    {
      "op": "null", 
      "name": "inception_4d_1x1_bias", 
      "attr": {
        "kernel": "(1, 1)", 
        "no_bias": "False", 
        "num_filter": "112", 
        "pad": "(0, 0)", 
        "stride": "(1, 1)"
      }, 
      "inputs": []
    }, 
    {
      "op": "Convolution", 
      "name": "inception_4d_1x1", 
      "attr": {
        "kernel": "(1, 1)", 
        "no_bias": "False", 
        "num_filter": "112", 
        "pad": "(0, 0)", 
        "stride": "(1, 1)"
      }, 
      "inputs": [[147, 0, 0], [148, 0, 0], [149, 0, 0]]
    }, 
    {
      "op": "Activation", 
      "name": "inception_4d_relu_1x1", 
      "attr": {"act_type": "relu"}, 
      "inputs": [[150, 0, 0]]
    }, 
    {
      "op": "null", 
      "name": "inception_4d_3x3_reduce_weight", 
      "attr": {
        "kernel": "(1, 1)", 
        "no_bias": "False", 
        "num_filter": "144", 
        "pad": "(0, 0)", 
        "stride": "(1, 1)"
      }, 
      "inputs": []
    }, 
    {
      "op": "null", 
      "name": "inception_4d_3x3_reduce_bias", 
      "attr": {
        "kernel": "(1, 1)", 
        "no_bias": "False", 
        "num_filter": "144", 
        "pad": "(0, 0)", 
        "stride": "(1, 1)"
      }, 
      "inputs": []
    }, 
    {
      "op": "Convolution", 
      "name": "inception_4d_3x3_reduce", 
      "attr": {
        "kernel": "(1, 1)", 
        "no_bias": "False", 
        "num_filter": "144", 
        "pad": "(0, 0)", 
        "stride": "(1, 1)"
      }, 
      "inputs": [[147, 0, 0], [152, 0, 0], [153, 0, 0]]
    }, 
    {
      "op": "Activation", 
      "name": "inception_4d_relu_3x3_reduce", 
      "attr": {"act_type": "relu"}, 
      "inputs": [[154, 0, 0]]
    }, 
    {
      "op": "null", 
      "name": "inception_4d_3x3_weight", 
      "attr": {
        "kernel": "(3, 3)", 
        "no_bias": "False", 
        "num_filter": "288", 
        "pad": "(1, 1)", 
        "stride": "(1, 1)"
      }, 
      "inputs": []
    }, 
    {
      "op": "null", 
      "name": "inception_4d_3x3_bias", 
      "attr": {
        "kernel": "(3, 3)", 
        "no_bias": "False", 
        "num_filter": "288", 
        "pad": "(1, 1)", 
        "stride": "(1, 1)"
      }, 
      "inputs": []
    }, 
    {
      "op": "Convolution", 
      "name": "inception_4d_3x3", 
      "attr": {
        "kernel": "(3, 3)", 
        "no_bias": "False", 
        "num_filter": "288", 
        "pad": "(1, 1)", 
        "stride": "(1, 1)"
      }, 
      "inputs": [[155, 0, 0], [156, 0, 0], [157, 0, 0]]
    }, 
    {
      "op": "Activation", 
      "name": "inception_4d_relu_3x3", 
      "attr": {"act_type": "relu"}, 
      "inputs": [[158, 0, 0]]
    }, 
    {
      "op": "null", 
      "name": "inception_4d_5x5_reduce_weight", 
      "attr": {
        "kernel": "(1, 1)", 
        "no_bias": "False", 
        "num_filter": "32", 
        "pad": "(0, 0)", 
        "stride": "(1, 1)"
      }, 
      "inputs": []
    }, 
    {
      "op": "null", 
      "name": "inception_4d_5x5_reduce_bias", 
      "attr": {
        "kernel": "(1, 1)", 
        "no_bias": "False", 
        "num_filter": "32", 
        "pad": "(0, 0)", 
        "stride": "(1, 1)"
      }, 
      "inputs": []
    }, 
    {
      "op": "Convolution", 
      "name": "inception_4d_5x5_reduce", 
      "attr": {
        "kernel": "(1, 1)", 
        "no_bias": "False", 
        "num_filter": "32", 
        "pad": "(0, 0)", 
        "stride": "(1, 1)"
      }, 
      "inputs": [[147, 0, 0], [160, 0, 0], [161, 0, 0]]
    }, 
    {
      "op": "Activation", 
      "name": "inception_4d_relu_5x5_reduce", 
      "attr": {"act_type": "relu"}, 
      "inputs": [[162, 0, 0]]
    }, 
    {
      "op": "null", 
      "name": "inception_4d_5x5_weight", 
      "attr": {
        "kernel": "(5, 5)", 
        "no_bias": "False", 
        "num_filter": "64", 
        "pad": "(2, 2)", 
        "stride": "(1, 1)"
      }, 
      "inputs": []
    }, 
    {
      "op": "null", 
      "name": "inception_4d_5x5_bias", 
      "attr": {
        "kernel": "(5, 5)", 
        "no_bias": "False", 
        "num_filter": "64", 
        "pad": "(2, 2)", 
        "stride": "(1, 1)"
      }, 
      "inputs": []
    }, 
    {
      "op": "Convolution", 
      "name": "inception_4d_5x5", 
      "attr": {
        "kernel": "(5, 5)", 
        "no_bias": "False", 
        "num_filter": "64", 
        "pad": "(2, 2)", 
        "stride": "(1, 1)"
      }, 
      "inputs": [[163, 0, 0], [164, 0, 0], [165, 0, 0]]
    }, 
    {
      "op": "Activation", 
      "name": "inception_4d_relu_5x5", 
      "attr": {"act_type": "relu"}, 
      "inputs": [[166, 0, 0]]
    }, 
    {
      "op": "Pooling", 
      "name": "inception_4d_pool", 
      "attr": {
        "kernel": "(3, 3)", 
        "pad": "(1, 1)", 
        "pool_type": "max", 
        "pooling_convention": "full", 
        "stride": "(1, 1)"
      }, 
      "inputs": [[147, 0, 0]]
    }, 
    {
      "op": "null", 
      "name": "inception_4d_pool_proj_weight", 
      "attr": {
        "kernel": "(1, 1)", 
        "no_bias": "False", 
        "num_filter": "64", 
        "pad": "(0, 0)", 
        "stride": "(1, 1)"
      }, 
      "inputs": []
    }, 
    {
      "op": "null", 
      "name": "inception_4d_pool_proj_bias", 
      "attr": {
        "kernel": "(1, 1)", 
        "no_bias": "False", 
        "num_filter": "64", 
        "pad": "(0, 0)", 
        "stride": "(1, 1)"
      }, 
      "inputs": []
    }, 
    {
      "op": "Convolution", 
      "name": "inception_4d_pool_proj", 
      "attr": {
        "kernel": "(1, 1)", 
        "no_bias": "False", 
        "num_filter": "64", 
        "pad": "(0, 0)", 
        "stride": "(1, 1)"
      }, 
      "inputs": [[168, 0, 0], [169, 0, 0], [170, 0, 0]]
    }, 
    {
      "op": "Activation", 
      "name": "inception_4d_relu_pool_proj", 
      "attr": {"act_type": "relu"}, 
      "inputs": [[171, 0, 0]]
    }, 
    {
      "op": "Concat", 
      "name": "inception_4d_output", 
      "attr": {"num_args": "4"}, 
      "inputs": [[151, 0, 0], [159, 0, 0], [167, 0, 0], [172, 0, 0]]
    }, 
    {
      "op": "null", 
      "name": "inception_4e_1x1_weight", 
      "attr": {
        "kernel": "(1, 1)", 
        "no_bias": "False", 
        "num_filter": "256", 
        "pad": "(0, 0)", 
        "stride": "(1, 1)"
      }, 
      "inputs": []
    }, 
    {
      "op": "null", 
      "name": "inception_4e_1x1_bias", 
      "attr": {
        "kernel": "(1, 1)", 
        "no_bias": "False", 
        "num_filter": "256", 
        "pad": "(0, 0)", 
        "stride": "(1, 1)"
      }, 
      "inputs": []
    }, 
    {
      "op": "Convolution", 
      "name": "inception_4e_1x1", 
      "attr": {
        "kernel": "(1, 1)", 
        "no_bias": "False", 
        "num_filter": "256", 
        "pad": "(0, 0)", 
        "stride": "(1, 1)"
      }, 
      "inputs": [[173, 0, 0], [174, 0, 0], [175, 0, 0]]
    }, 
    {
      "op": "Activation", 
      "name": "inception_4e_relu_1x1", 
      "attr": {"act_type": "relu"}, 
      "inputs": [[176, 0, 0]]
    }, 
    {
      "op": "null", 
      "name": "inception_4e_3x3_reduce_weight", 
      "attr": {
        "kernel": "(1, 1)", 
        "no_bias": "False", 
        "num_filter": "160", 
        "pad": "(0, 0)", 
        "stride": "(1, 1)"
      }, 
      "inputs": []
    }, 
    {
      "op": "null", 
      "name": "inception_4e_3x3_reduce_bias", 
      "attr": {
        "kernel": "(1, 1)", 
        "no_bias": "False", 
        "num_filter": "160", 
        "pad": "(0, 0)", 
        "stride": "(1, 1)"
      }, 
      "inputs": []
    }, 
    {
      "op": "Convolution", 
      "name": "inception_4e_3x3_reduce", 
      "attr": {
        "kernel": "(1, 1)", 
        "no_bias": "False", 
        "num_filter": "160", 
        "pad": "(0, 0)", 
        "stride": "(1, 1)"
      }, 
      "inputs": [[173, 0, 0], [178, 0, 0], [179, 0, 0]]
    }, 
    {
      "op": "Activation", 
      "name": "inception_4e_relu_3x3_reduce", 
      "attr": {"act_type": "relu"}, 
      "inputs": [[180, 0, 0]]
    }, 
    {
      "op": "null", 
      "name": "inception_4e_3x3_weight", 
      "attr": {
        "kernel": "(3, 3)", 
        "no_bias": "False", 
        "num_filter": "320", 
        "pad": "(1, 1)", 
        "stride": "(1, 1)"
      }, 
      "inputs": []
    }, 
    {
      "op": "null", 
      "name": "inception_4e_3x3_bias", 
      "attr": {
        "kernel": "(3, 3)", 
        "no_bias": "False", 
        "num_filter": "320", 
        "pad": "(1, 1)", 
        "stride": "(1, 1)"
      }, 
      "inputs": []
    }, 
    {
      "op": "Convolution", 
      "name": "inception_4e_3x3", 
      "attr": {
        "kernel": "(3, 3)", 
        "no_bias": "False", 
        "num_filter": "320", 
        "pad": "(1, 1)", 
        "stride": "(1, 1)"
      }, 
      "inputs": [[181, 0, 0], [182, 0, 0], [183, 0, 0]]
    }, 
    {
      "op": "Activation", 
      "name": "inception_4e_relu_3x3", 
      "attr": {"act_type": "relu"}, 
      "inputs": [[184, 0, 0]]
    }, 
    {
      "op": "null", 
      "name": "inception_4e_5x5_reduce_weight", 
      "attr": {
        "kernel": "(1, 1)", 
        "no_bias": "False", 
        "num_filter": "32", 
        "pad": "(0, 0)", 
        "stride": "(1, 1)"
      }, 
      "inputs": []
    }, 
    {
      "op": "null", 
      "name": "inception_4e_5x5_reduce_bias", 
      "attr": {
        "kernel": "(1, 1)", 
        "no_bias": "False", 
        "num_filter": "32", 
        "pad": "(0, 0)", 
        "stride": "(1, 1)"
      }, 
      "inputs": []
    }, 
    {
      "op": "Convolution", 
      "name": "inception_4e_5x5_reduce", 
      "attr": {
        "kernel": "(1, 1)", 
        "no_bias": "False", 
        "num_filter": "32", 
        "pad": "(0, 0)", 
        "stride": "(1, 1)"
      }, 
      "inputs": [[173, 0, 0], [186, 0, 0], [187, 0, 0]]
    }, 
    {
      "op": "Activation", 
      "name": "inception_4e_relu_5x5_reduce", 
      "attr": {"act_type": "relu"}, 
      "inputs": [[188, 0, 0]]
    }, 
    {
      "op": "null", 
      "name": "inception_4e_5x5_weight", 
      "attr": {
        "kernel": "(5, 5)", 
        "no_bias": "False", 
        "num_filter": "128", 
        "pad": "(2, 2)", 
        "stride": "(1, 1)"
      }, 
      "inputs": []
    }, 
    {
      "op": "null", 
      "name": "inception_4e_5x5_bias", 
      "attr": {
        "kernel": "(5, 5)", 
        "no_bias": "False", 
        "num_filter": "128", 
        "pad": "(2, 2)", 
        "stride": "(1, 1)"
      }, 
      "inputs": []
    }, 
    {
      "op": "Convolution", 
      "name": "inception_4e_5x5", 
      "attr": {
        "kernel": "(5, 5)", 
        "no_bias": "False", 
        "num_filter": "128", 
        "pad": "(2, 2)", 
        "stride": "(1, 1)"
      }, 
      "inputs": [[189, 0, 0], [190, 0, 0], [191, 0, 0]]
    }, 
    {
      "op": "Activation", 
      "name": "inception_4e_relu_5x5", 
      "attr": {"act_type": "relu"}, 
      "inputs": [[192, 0, 0]]
    }, 
    {
      "op": "Pooling", 
      "name": "inception_4e_pool", 
      "attr": {
        "kernel": "(3, 3)", 
        "pad": "(1, 1)", 
        "pool_type": "max", 
        "pooling_convention": "full", 
        "stride": "(1, 1)"
      }, 
      "inputs": [[173, 0, 0]]
    }, 
    {
      "op": "null", 
      "name": "inception_4e_pool_proj_weight", 
      "attr": {
        "kernel": "(1, 1)", 
        "no_bias": "False", 
        "num_filter": "128", 
        "pad": "(0, 0)", 
        "stride": "(1, 1)"
      }, 
      "inputs": []
    }, 
    {
      "op": "null", 
      "name": "inception_4e_pool_proj_bias", 
      "attr": {
        "kernel": "(1, 1)", 
        "no_bias": "False", 
        "num_filter": "128", 
        "pad": "(0, 0)", 
        "stride": "(1, 1)"
      }, 
      "inputs": []
    }, 
    {
      "op": "Convolution", 
      "name": "inception_4e_pool_proj", 
      "attr": {
        "kernel": "(1, 1)", 
        "no_bias": "False", 
        "num_filter": "128", 
        "pad": "(0, 0)", 
        "stride": "(1, 1)"
      }, 
      "inputs": [[194, 0, 0], [195, 0, 0], [196, 0, 0]]
    }, 
    {
      "op": "Activation", 
      "name": "inception_4e_relu_pool_proj", 
      "attr": {"act_type": "relu"}, 
      "inputs": [[197, 0, 0]]
    }, 
    {
      "op": "Concat", 
      "name": "inception_4e_output", 
      "attr": {"num_args": "4"}, 
      "inputs": [[177, 0, 0], [185, 0, 0], [193, 0, 0], [198, 0, 0]]
    }, 
    {
      "op": "Pooling", 
      "name": "pool4_3x3_s2", 
      "attr": {
        "kernel": "(3, 3)", 
        "pad": "(0, 0)", 
        "pool_type": "max", 
        "pooling_convention": "full", 
        "stride": "(2, 2)"
      }, 
      "inputs": [[199, 0, 0]]
    }, 
    {
      "op": "null", 
      "name": "inception_5a_1x1_weight", 
      "attr": {
        "kernel": "(1, 1)", 
        "no_bias": "False", 
        "num_filter": "256", 
        "pad": "(0, 0)", 
        "stride": "(1, 1)"
      }, 
      "inputs": []
    }, 
    {
      "op": "null", 
      "name": "inception_5a_1x1_bias", 
      "attr": {
        "kernel": "(1, 1)", 
        "no_bias": "False", 
        "num_filter": "256", 
        "pad": "(0, 0)", 
        "stride": "(1, 1)"
      }, 
      "inputs": []
    }, 
    {
      "op": "Convolution", 
      "name": "inception_5a_1x1", 
      "attr": {
        "kernel": "(1, 1)", 
        "no_bias": "False", 
        "num_filter": "256", 
        "pad": "(0, 0)", 
        "stride": "(1, 1)"
      }, 
      "inputs": [[200, 0, 0], [201, 0, 0], [202, 0, 0]]
    }, 
    {
      "op": "Activation", 
      "name": "inception_5a_relu_1x1", 
      "attr": {"act_type": "relu"}, 
      "inputs": [[203, 0, 0]]
    }, 
    {
      "op": "null", 
      "name": "inception_5a_3x3_reduce_weight", 
      "attr": {
        "kernel": "(1, 1)", 
        "no_bias": "False", 
        "num_filter": "160", 
        "pad": "(0, 0)", 
        "stride": "(1, 1)"
      }, 
      "inputs": []
    }, 
    {
      "op": "null", 
      "name": "inception_5a_3x3_reduce_bias", 
      "attr": {
        "kernel": "(1, 1)", 
        "no_bias": "False", 
        "num_filter": "160", 
        "pad": "(0, 0)", 
        "stride": "(1, 1)"
      }, 
      "inputs": []
    }, 
    {
      "op": "Convolution", 
      "name": "inception_5a_3x3_reduce", 
      "attr": {
        "kernel": "(1, 1)", 
        "no_bias": "False", 
        "num_filter": "160", 
        "pad": "(0, 0)", 
        "stride": "(1, 1)"
      }, 
      "inputs": [[200, 0, 0], [205, 0, 0], [206, 0, 0]]
    }, 
    {
      "op": "Activation", 
      "name": "inception_5a_relu_3x3_reduce", 
      "attr": {"act_type": "relu"}, 
      "inputs": [[207, 0, 0]]
    }, 
    {
      "op": "null", 
      "name": "inception_5a_3x3_weight", 
      "attr": {
        "kernel": "(3, 3)", 
        "no_bias": "False", 
        "num_filter": "320", 
        "pad": "(1, 1)", 
        "stride": "(1, 1)"
      }, 
      "inputs": []
    }, 
    {
      "op": "null", 
      "name": "inception_5a_3x3_bias", 
      "attr": {
        "kernel": "(3, 3)", 
        "no_bias": "False", 
        "num_filter": "320", 
        "pad": "(1, 1)", 
        "stride": "(1, 1)"
      }, 
      "inputs": []
    }, 
    {
      "op": "Convolution", 
      "name": "inception_5a_3x3", 
      "attr": {
        "kernel": "(3, 3)", 
        "no_bias": "False", 
        "num_filter": "320", 
        "pad": "(1, 1)", 
        "stride": "(1, 1)"
      }, 
      "inputs": [[208, 0, 0], [209, 0, 0], [210, 0, 0]]
    }, 
    {
      "op": "Activation", 
      "name": "inception_5a_relu_3x3", 
      "attr": {"act_type": "relu"}, 
      "inputs": [[211, 0, 0]]
    }, 
    {
      "op": "null", 
      "name": "inception_5a_5x5_reduce_weight", 
      "attr": {
        "kernel": "(1, 1)", 
        "no_bias": "False", 
        "num_filter": "32", 
        "pad": "(0, 0)", 
        "stride": "(1, 1)"
      }, 
      "inputs": []
    }, 
    {
      "op": "null", 
      "name": "inception_5a_5x5_reduce_bias", 
      "attr": {
        "kernel": "(1, 1)", 
        "no_bias": "False", 
        "num_filter": "32", 
        "pad": "(0, 0)", 
        "stride": "(1, 1)"
      }, 
      "inputs": []
    }, 
    {
      "op": "Convolution", 
      "name": "inception_5a_5x5_reduce", 
      "attr": {
        "kernel": "(1, 1)", 
        "no_bias": "False", 
        "num_filter": "32", 
        "pad": "(0, 0)", 
        "stride": "(1, 1)"
      }, 
      "inputs": [[200, 0, 0], [213, 0, 0], [214, 0, 0]]
    }, 
    {
      "op": "Activation", 
      "name": "inception_5a_relu_5x5_reduce", 
      "attr": {"act_type": "relu"}, 
      "inputs": [[215, 0, 0]]
    }, 
    {
      "op": "null", 
      "name": "inception_5a_5x5_weight", 
      "attr": {
        "kernel": "(5, 5)", 
        "no_bias": "False", 
        "num_filter": "128", 
        "pad": "(2, 2)", 
        "stride": "(1, 1)"
      }, 
      "inputs": []
    }, 
    {
      "op": "null", 
      "name": "inception_5a_5x5_bias", 
      "attr": {
        "kernel": "(5, 5)", 
        "no_bias": "False", 
        "num_filter": "128", 
        "pad": "(2, 2)", 
        "stride": "(1, 1)"
      }, 
      "inputs": []
    }, 
    {
      "op": "Convolution", 
      "name": "inception_5a_5x5", 
      "attr": {
        "kernel": "(5, 5)", 
        "no_bias": "False", 
        "num_filter": "128", 
        "pad": "(2, 2)", 
        "stride": "(1, 1)"
      }, 
      "inputs": [[216, 0, 0], [217, 0, 0], [218, 0, 0]]
    }, 
    {
      "op": "Activation", 
      "name": "inception_5a_relu_5x5", 
      "attr": {"act_type": "relu"}, 
      "inputs": [[219, 0, 0]]
    }, 
    {
      "op": "Pooling", 
      "name": "inception_5a_pool", 
      "attr": {
        "kernel": "(3, 3)", 
        "pad": "(1, 1)", 
        "pool_type": "max", 
        "pooling_convention": "full", 
        "stride": "(1, 1)"
      }, 
      "inputs": [[200, 0, 0]]
    }, 
    {
      "op": "null", 
      "name": "inception_5a_pool_proj_weight", 
      "attr": {
        "kernel": "(1, 1)", 
        "no_bias": "False", 
        "num_filter": "128", 
        "pad": "(0, 0)", 
        "stride": "(1, 1)"
      }, 
      "inputs": []
    }, 
    {
      "op": "null", 
      "name": "inception_5a_pool_proj_bias", 
      "attr": {
        "kernel": "(1, 1)", 
        "no_bias": "False", 
        "num_filter": "128", 
        "pad": "(0, 0)", 
        "stride": "(1, 1)"
      }, 
      "inputs": []
    }, 
    {
      "op": "Convolution", 
      "name": "inception_5a_pool_proj", 
      "attr": {
        "kernel": "(1, 1)", 
        "no_bias": "False", 
        "num_filter": "128", 
        "pad": "(0, 0)", 
        "stride": "(1, 1)"
      }, 
      "inputs": [[221, 0, 0], [222, 0, 0], [223, 0, 0]]
    }, 
    {
      "op": "Activation", 
      "name": "inception_5a_relu_pool_proj", 
      "attr": {"act_type": "relu"}, 
      "inputs": [[224, 0, 0]]
    }, 
    {
      "op": "Concat", 
      "name": "inception_5a_output", 
      "attr": {"num_args": "4"}, 
      "inputs": [[204, 0, 0], [212, 0, 0], [220, 0, 0], [225, 0, 0]]
    }, 
    {
      "op": "null", 
      "name": "inception_5b_1x1_weight", 
      "attr": {
        "kernel": "(1, 1)", 
        "no_bias": "False", 
        "num_filter": "384", 
        "pad": "(0, 0)", 
        "stride": "(1, 1)"
      }, 
      "inputs": []
    }, 
    {
      "op": "null", 
      "name": "inception_5b_1x1_bias", 
      "attr": {
        "kernel": "(1, 1)", 
        "no_bias": "False", 
        "num_filter": "384", 
        "pad": "(0, 0)", 
        "stride": "(1, 1)"
      }, 
      "inputs": []
    }, 
    {
      "op": "Convolution", 
      "name": "inception_5b_1x1", 
      "attr": {
        "kernel": "(1, 1)", 
        "no_bias": "False", 
        "num_filter": "384", 
        "pad": "(0, 0)", 
        "stride": "(1, 1)"
      }, 
      "inputs": [[226, 0, 0], [227, 0, 0], [228, 0, 0]]
    }, 
    {
      "op": "Activation", 
      "name": "inception_5b_relu_1x1", 
      "attr": {"act_type": "relu"}, 
      "inputs": [[229, 0, 0]]
    }, 
    {
      "op": "null", 
      "name": "inception_5b_3x3_reduce_weight", 
      "attr": {
        "kernel": "(1, 1)", 
        "no_bias": "False", 
        "num_filter": "192", 
        "pad": "(0, 0)", 
        "stride": "(1, 1)"
      }, 
      "inputs": []
    }, 
    {
      "op": "null", 
      "name": "inception_5b_3x3_reduce_bias", 
      "attr": {
        "kernel": "(1, 1)", 
        "no_bias": "False", 
        "num_filter": "192", 
        "pad": "(0, 0)", 
        "stride": "(1, 1)"
      }, 
      "inputs": []
    }, 
    {
      "op": "Convolution", 
      "name": "inception_5b_3x3_reduce", 
      "attr": {
        "kernel": "(1, 1)", 
        "no_bias": "False", 
        "num_filter": "192", 
        "pad": "(0, 0)", 
        "stride": "(1, 1)"
      }, 
      "inputs": [[226, 0, 0], [231, 0, 0], [232, 0, 0]]
    }, 
    {
      "op": "Activation", 
      "name": "inception_5b_relu_3x3_reduce", 
      "attr": {"act_type": "relu"}, 
      "inputs": [[233, 0, 0]]
    }, 
    {
      "op": "null", 
      "name": "inception_5b_3x3_weight", 
      "attr": {
        "kernel": "(3, 3)", 
        "no_bias": "False", 
        "num_filter": "384", 
        "pad": "(1, 1)", 
        "stride": "(1, 1)"
      }, 
      "inputs": []
    }, 
    {
      "op": "null", 
      "name": "inception_5b_3x3_bias", 
      "attr": {
        "kernel": "(3, 3)", 
        "no_bias": "False", 
        "num_filter": "384", 
        "pad": "(1, 1)", 
        "stride": "(1, 1)"
      }, 
      "inputs": []
    }, 
    {
      "op": "Convolution", 
      "name": "inception_5b_3x3", 
      "attr": {
        "kernel": "(3, 3)", 
        "no_bias": "False", 
        "num_filter": "384", 
        "pad": "(1, 1)", 
        "stride": "(1, 1)"
      }, 
      "inputs": [[234, 0, 0], [235, 0, 0], [236, 0, 0]]
    }, 
    {
      "op": "Activation", 
      "name": "inception_5b_relu_3x3", 
      "attr": {"act_type": "relu"}, 
      "inputs": [[237, 0, 0]]
    }, 
    {
      "op": "null", 
      "name": "inception_5b_5x5_reduce_weight", 
      "attr": {
        "kernel": "(1, 1)", 
        "no_bias": "False", 
        "num_filter": "48", 
        "pad": "(0, 0)", 
        "stride": "(1, 1)"
      }, 
      "inputs": []
    }, 
    {
      "op": "null", 
      "name": "inception_5b_5x5_reduce_bias", 
      "attr": {
        "kernel": "(1, 1)", 
        "no_bias": "False", 
        "num_filter": "48", 
        "pad": "(0, 0)", 
        "stride": "(1, 1)"
      }, 
      "inputs": []
    }, 
    {
      "op": "Convolution", 
      "name": "inception_5b_5x5_reduce", 
      "attr": {
        "kernel": "(1, 1)", 
        "no_bias": "False", 
        "num_filter": "48", 
        "pad": "(0, 0)", 
        "stride": "(1, 1)"
      }, 
      "inputs": [[226, 0, 0], [239, 0, 0], [240, 0, 0]]
    }, 
    {
      "op": "Activation", 
      "name": "inception_5b_relu_5x5_reduce", 
      "attr": {"act_type": "relu"}, 
      "inputs": [[241, 0, 0]]
    }, 
    {
      "op": "null", 
      "name": "inception_5b_5x5_weight", 
      "attr": {
        "kernel": "(5, 5)", 
        "no_bias": "False", 
        "num_filter": "128", 
        "pad": "(2, 2)", 
        "stride": "(1, 1)"
      }, 
      "inputs": []
    }, 
    {
      "op": "null", 
      "name": "inception_5b_5x5_bias", 
      "attr": {
        "kernel": "(5, 5)", 
        "no_bias": "False", 
        "num_filter": "128", 
        "pad": "(2, 2)", 
        "stride": "(1, 1)"
      }, 
      "inputs": []
    }, 
    {
      "op": "Convolution", 
      "name": "inception_5b_5x5", 
      "attr": {
        "kernel": "(5, 5)", 
        "no_bias": "False", 
        "num_filter": "128", 
        "pad": "(2, 2)", 
        "stride": "(1, 1)"
      }, 
      "inputs": [[242, 0, 0], [243, 0, 0], [244, 0, 0]]
    }, 
    {
      "op": "Activation", 
      "name": "inception_5b_relu_5x5", 
      "attr": {"act_type": "relu"}, 
      "inputs": [[245, 0, 0]]
    }, 
    {
      "op": "Pooling", 
      "name": "inception_5b_pool", 
      "attr": {
        "kernel": "(3, 3)", 
        "pad": "(1, 1)", 
        "pool_type": "max", 
        "pooling_convention": "full", 
        "stride": "(1, 1)"
      }, 
      "inputs": [[226, 0, 0]]
    }, 
    {
      "op": "null", 
      "name": "inception_5b_pool_proj_weight", 
      "attr": {
        "kernel": "(1, 1)", 
        "no_bias": "False", 
        "num_filter": "128", 
        "pad": "(0, 0)", 
        "stride": "(1, 1)"
      }, 
      "inputs": []
    }, 
    {
      "op": "null", 
      "name": "inception_5b_pool_proj_bias", 
      "attr": {
        "kernel": "(1, 1)", 
        "no_bias": "False", 
        "num_filter": "128", 
        "pad": "(0, 0)", 
        "stride": "(1, 1)"
      }, 
      "inputs": []
    }, 
    {
      "op": "Convolution", 
      "name": "inception_5b_pool_proj", 
      "attr": {
        "kernel": "(1, 1)", 
        "no_bias": "False", 
        "num_filter": "128", 
        "pad": "(0, 0)", 
        "stride": "(1, 1)"
      }, 
      "inputs": [[247, 0, 0], [248, 0, 0], [249, 0, 0]]
    }, 
    {
      "op": "Activation", 
      "name": "inception_5b_relu_pool_proj", 
      "attr": {"act_type": "relu"}, 
      "inputs": [[250, 0, 0]]
    }, 
    {
      "op": "Concat", 
      "name": "inception_5b_output", 
      "attr": {"num_args": "4"}, 
      "inputs": [[230, 0, 0], [238, 0, 0], [246, 0, 0], [251, 0, 0]]
    }, 
    {
      "op": "null", 
      "name": "post_fc7_conv_weight", 
      "attr": {
        "kernel": "(1, 1)", 
        "no_bias": "False", 
        "num_filter": "1024", 
        "pad": "(0, 0)", 
        "stride": "(1, 1)"
      }, 
      "inputs": []
    }, 
    {
      "op": "null", 
      "name": "post_fc7_conv_bias", 
      "attr": {
        "kernel": "(1, 1)", 
        "no_bias": "False", 
        "num_filter": "1024", 
        "pad": "(0, 0)", 
        "stride": "(1, 1)"
      }, 
      "inputs": []
    }, 
    {
      "op": "Convolution", 
      "name": "post_fc7_conv", 
      "attr": {
        "kernel": "(1, 1)", 
        "no_bias": "False", 
        "num_filter": "1024", 
        "pad": "(0, 0)", 
        "stride": "(1, 1)"
      }, 
      "inputs": [[252, 0, 0], [253, 0, 0], [254, 0, 0]]
    }, 
    {
      "op": "_mul_scalar", 
      "name": "_mulscalar0", 
      "attr": {"scalar": "0.01"}, 
      "inputs": [[255, 0, 0]]
    }, 
    {
      "op": "Reshape", 
      "name": "reshape0", 
      "attr": {"shape": "(1024, 300)"}, 
      "inputs": [[256, 0, 0]]
    }, 
    {
      "op": "transpose", 
      "name": "lstm_input", 
      "attr": {"axes": "(1, 0)"}, 
      "inputs": [[257, 0, 0]]
    }, 
    {
      "op": "null", 
      "name": "lstm_hidden_seed", 
      "inputs": []
    }, 
    {
      "op": "Concat", 
      "name": "concat5", 
      "attr": {
        "dim": "1", 
        "num_args": "2"
      }, 
      "inputs": [[258, 0, 0], [259, 0, 0]]
    }, 
    {
      "op": "null", 
      "name": "output_gate_values0_weight", 
      "attr": {
        "no_bias": "True", 
        "num_hidden": "250"
      }, 
      "inputs": []
    }, 
    {
      "op": "FullyConnected", 
      "name": "output_gate_values0", 
      "attr": {
        "no_bias": "True", 
        "num_hidden": "250"
      }, 
      "inputs": [[260, 0, 0], [261, 0, 0]]
    }, 
    {
      "op": "Activation", 
      "name": "activation27", 
      "attr": {"act_type": "sigmoid"}, 
      "inputs": [[262, 0, 0]]
    }, 
    {
      "op": "_mul_scalar", 
      "name": "_mulscalar11", 
      "attr": {"scalar": "-1.0"}, 
      "inputs": [[262, 0, 0]]
    }, 
    {
      "op": "Activation", 
      "name": "activation28", 
      "attr": {"act_type": "sigmoid"}, 
      "inputs": [[264, 0, 0]]
    }, 
    {
      "op": "null", 
      "name": "lstm_mem_seed", 
      "inputs": []
    }, 
    {
      "op": "_mul", 
      "name": "_mul15", 
      "inputs": [[265, 0, 0], [266, 0, 0]]
    }, 
    {
      "op": "null", 
      "name": "input_values0_weight", 
      "attr": {
        "no_bias": "True", 
        "num_hidden": "250"
      }, 
      "inputs": []
    }, 
    {
      "op": "FullyConnected", 
      "name": "input_values0", 
      "attr": {
        "no_bias": "True", 
        "num_hidden": "250"
      }, 
      "inputs": [[260, 0, 0], [268, 0, 0]]
    }, 
    {
      "op": "Activation", 
      "name": "activation25", 
      "attr": {"act_type": "tanh"}, 
      "inputs": [[269, 0, 0]]
    }, 
    {
      "op": "null", 
      "name": "input_gate_values0_weight", 
      "attr": {
        "no_bias": "True", 
        "num_hidden": "250"
      }, 
      "inputs": []
    }, 
    {
      "op": "FullyConnected", 
      "name": "input_gate_values0", 
      "attr": {
        "no_bias": "True", 
        "num_hidden": "250"
      }, 
      "inputs": [[260, 0, 0], [271, 0, 0]]
    }, 
    {
      "op": "Activation", 
      "name": "activation26", 
      "attr": {"act_type": "sigmoid"}, 
      "inputs": [[272, 0, 0]]
    }, 
    {
      "op": "_mul", 
      "name": "_mul16", 
      "inputs": [[270, 0, 0], [273, 0, 0]]
    }, 
    {
      "op": "elemwise_add", 
      "name": "_plus5", 
      "inputs": [[267, 0, 0], [274, 0, 0]]
    }, 
    {
      "op": "Activation", 
      "name": "activation29", 
      "attr": {"act_type": "tanh"}, 
      "inputs": [[275, 0, 0]]
    }, 
    {
      "op": "_mul", 
      "name": "_mul17", 
      "inputs": [[263, 0, 0], [276, 0, 0]]
    }, 
    {
      "op": "Dropout", 
      "name": "dropout5", 
      "attr": {"p": "0.0"}, 
      "inputs": [[277, 0, 0]]
    }, 
    {
      "op": "null", 
      "name": "ip_bbox_unscaled0_weight", 
      "attr": {"num_hidden": "4"}, 
      "inputs": []
    }, 
    {
      "op": "null", 
      "name": "ip_bbox_unscaled0_bias", 
      "attr": {"num_hidden": "4"}, 
      "inputs": []
    }, 
    {
      "op": "FullyConnected", 
      "name": "ip_bbox_unscaled0", 
      "attr": {"num_hidden": "4"}, 
      "inputs": [[278, 0, 0], [279, 0, 0], [280, 0, 0]]
    }, 
    {
      "op": "_mul_scalar", 
      "name": "_mulscalar12", 
      "attr": {"scalar": "100"}, 
      "inputs": [[281, 0, 0]]
    }, 
    {
      "op": "Reshape", 
      "name": "reshape6", 
      "attr": {"target_shape": "(300, 4, 1, 1)"}, 
      "inputs": [[282, 0, 0]]
    }, 
    {
      "op": "Concat", 
      "name": "concat6", 
      "attr": {
        "dim": "1", 
        "num_args": "2"
      }, 
      "inputs": [[258, 0, 0], [277, 0, 0]]
    }, 
    {
      "op": "null", 
      "name": "output_gate_values1_weight", 
      "attr": {
        "no_bias": "True", 
        "num_hidden": "250"
      }, 
      "inputs": []
    }, 
    {
      "op": "FullyConnected", 
      "name": "output_gate_values1", 
      "attr": {
        "no_bias": "True", 
        "num_hidden": "250"
      }, 
      "inputs": [[284, 0, 0], [285, 0, 0]]
    }, 
    {
      "op": "Activation", 
      "name": "activation32", 
      "attr": {"act_type": "sigmoid"}, 
      "inputs": [[286, 0, 0]]
    }, 
    {
      "op": "_mul_scalar", 
      "name": "_mulscalar13", 
      "attr": {"scalar": "-1.0"}, 
      "inputs": [[286, 0, 0]]
    }, 
    {
      "op": "Activation", 
      "name": "activation33", 
      "attr": {"act_type": "sigmoid"}, 
      "inputs": [[288, 0, 0]]
    }, 
    {
      "op": "_mul", 
      "name": "_mul18", 
      "inputs": [[289, 0, 0], [275, 0, 0]]
    }, 
    {
      "op": "null", 
      "name": "input_values1_weight", 
      "attr": {
        "no_bias": "True", 
        "num_hidden": "250"
      }, 
      "inputs": []
    }, 
    {
      "op": "FullyConnected", 
      "name": "input_values1", 
      "attr": {
        "no_bias": "True", 
        "num_hidden": "250"
      }, 
      "inputs": [[284, 0, 0], [291, 0, 0]]
    }, 
    {
      "op": "Activation", 
      "name": "activation30", 
      "attr": {"act_type": "tanh"}, 
      "inputs": [[292, 0, 0]]
    }, 
    {
      "op": "null", 
      "name": "input_gate_values1_weight", 
      "attr": {
        "no_bias": "True", 
        "num_hidden": "250"
      }, 
      "inputs": []
    }, 
    {
      "op": "FullyConnected", 
      "name": "input_gate_values1", 
      "attr": {
        "no_bias": "True", 
        "num_hidden": "250"
      }, 
      "inputs": [[284, 0, 0], [294, 0, 0]]
    }, 
    {
      "op": "Activation", 
      "name": "activation31", 
      "attr": {"act_type": "sigmoid"}, 
      "inputs": [[295, 0, 0]]
    }, 
    {
      "op": "_mul", 
      "name": "_mul19", 
      "inputs": [[293, 0, 0], [296, 0, 0]]
    }, 
    {
      "op": "elemwise_add", 
      "name": "_plus6", 
      "inputs": [[290, 0, 0], [297, 0, 0]]
    }, 
    {
      "op": "Activation", 
      "name": "activation34", 
      "attr": {"act_type": "tanh"}, 
      "inputs": [[298, 0, 0]]
    }, 
    {
      "op": "_mul", 
      "name": "_mul20", 
      "inputs": [[287, 0, 0], [299, 0, 0]]
    }, 
    {
      "op": "Dropout", 
      "name": "dropout6", 
      "attr": {"p": "0.0"}, 
      "inputs": [[300, 0, 0]]
    }, 
    {
      "op": "null", 
      "name": "ip_bbox_unscaled1_weight", 
      "attr": {"num_hidden": "4"}, 
      "inputs": []
    }, 
    {
      "op": "null", 
      "name": "ip_bbox_unscaled1_bias", 
      "attr": {"num_hidden": "4"}, 
      "inputs": []
    }, 
    {
      "op": "FullyConnected", 
      "name": "ip_bbox_unscaled1", 
      "attr": {"num_hidden": "4"}, 
      "inputs": [[301, 0, 0], [302, 0, 0], [303, 0, 0]]
    }, 
    {
      "op": "_mul_scalar", 
      "name": "_mulscalar14", 
      "attr": {"scalar": "100"}, 
      "inputs": [[304, 0, 0]]
    }, 
    {
      "op": "Reshape", 
      "name": "reshape7", 
      "attr": {"target_shape": "(300, 4, 1, 1)"}, 
      "inputs": [[305, 0, 0]]
    }, 
    {
      "op": "Concat", 
      "name": "concat7", 
      "attr": {
        "dim": "1", 
        "num_args": "2"
      }, 
      "inputs": [[258, 0, 0], [300, 0, 0]]
    }, 
    {
      "op": "null", 
      "name": "output_gate_values2_weight", 
      "attr": {
        "no_bias": "True", 
        "num_hidden": "250"
      }, 
      "inputs": []
    }, 
    {
      "op": "FullyConnected", 
      "name": "output_gate_values2", 
      "attr": {
        "no_bias": "True", 
        "num_hidden": "250"
      }, 
      "inputs": [[307, 0, 0], [308, 0, 0]]
    }, 
    {
      "op": "Activation", 
      "name": "activation37", 
      "attr": {"act_type": "sigmoid"}, 
      "inputs": [[309, 0, 0]]
    }, 
    {
      "op": "_mul_scalar", 
      "name": "_mulscalar15", 
      "attr": {"scalar": "-1.0"}, 
      "inputs": [[309, 0, 0]]
    }, 
    {
      "op": "Activation", 
      "name": "activation38", 
      "attr": {"act_type": "sigmoid"}, 
      "inputs": [[311, 0, 0]]
    }, 
    {
      "op": "_mul", 
      "name": "_mul21", 
      "inputs": [[312, 0, 0], [298, 0, 0]]
    }, 
    {
      "op": "null", 
      "name": "input_values2_weight", 
      "attr": {
        "no_bias": "True", 
        "num_hidden": "250"
      }, 
      "inputs": []
    }, 
    {
      "op": "FullyConnected", 
      "name": "input_values2", 
      "attr": {
        "no_bias": "True", 
        "num_hidden": "250"
      }, 
      "inputs": [[307, 0, 0], [314, 0, 0]]
    }, 
    {
      "op": "Activation", 
      "name": "activation35", 
      "attr": {"act_type": "tanh"}, 
      "inputs": [[315, 0, 0]]
    }, 
    {
      "op": "null", 
      "name": "input_gate_values2_weight", 
      "attr": {
        "no_bias": "True", 
        "num_hidden": "250"
      }, 
      "inputs": []
    }, 
    {
      "op": "FullyConnected", 
      "name": "input_gate_values2", 
      "attr": {
        "no_bias": "True", 
        "num_hidden": "250"
      }, 
      "inputs": [[307, 0, 0], [317, 0, 0]]
    }, 
    {
      "op": "Activation", 
      "name": "activation36", 
      "attr": {"act_type": "sigmoid"}, 
      "inputs": [[318, 0, 0]]
    }, 
    {
      "op": "_mul", 
      "name": "_mul22", 
      "inputs": [[316, 0, 0], [319, 0, 0]]
    }, 
    {
      "op": "elemwise_add", 
      "name": "_plus7", 
      "inputs": [[313, 0, 0], [320, 0, 0]]
    }, 
    {
      "op": "Activation", 
      "name": "activation39", 
      "attr": {"act_type": "tanh"}, 
      "inputs": [[321, 0, 0]]
    }, 
    {
      "op": "_mul", 
      "name": "_mul23", 
      "inputs": [[310, 0, 0], [322, 0, 0]]
    }, 
    {
      "op": "Dropout", 
      "name": "dropout7", 
      "attr": {"p": "0.0"}, 
      "inputs": [[323, 0, 0]]
    }, 
    {
      "op": "null", 
      "name": "ip_bbox_unscaled2_weight", 
      "attr": {"num_hidden": "4"}, 
      "inputs": []
    }, 
    {
      "op": "null", 
      "name": "ip_bbox_unscaled2_bias", 
      "attr": {"num_hidden": "4"}, 
      "inputs": []
    }, 
    {
      "op": "FullyConnected", 
      "name": "ip_bbox_unscaled2", 
      "attr": {"num_hidden": "4"}, 
      "inputs": [[324, 0, 0], [325, 0, 0], [326, 0, 0]]
    }, 
    {
      "op": "_mul_scalar", 
      "name": "_mulscalar16", 
      "attr": {"scalar": "100"}, 
      "inputs": [[327, 0, 0]]
    }, 
    {
      "op": "Reshape", 
      "name": "reshape8", 
      "attr": {"target_shape": "(300, 4, 1, 1)"}, 
      "inputs": [[328, 0, 0]]
    }, 
    {
      "op": "Concat", 
      "name": "concat8", 
      "attr": {
        "dim": "1", 
        "num_args": "2"
      }, 
      "inputs": [[258, 0, 0], [323, 0, 0]]
    }, 
    {
      "op": "null", 
      "name": "output_gate_values3_weight", 
      "attr": {
        "no_bias": "True", 
        "num_hidden": "250"
      }, 
      "inputs": []
    }, 
    {
      "op": "FullyConnected", 
      "name": "output_gate_values3", 
      "attr": {
        "no_bias": "True", 
        "num_hidden": "250"
      }, 
      "inputs": [[330, 0, 0], [331, 0, 0]]
    }, 
    {
      "op": "Activation", 
      "name": "activation42", 
      "attr": {"act_type": "sigmoid"}, 
      "inputs": [[332, 0, 0]]
    }, 
    {
      "op": "_mul_scalar", 
      "name": "_mulscalar17", 
      "attr": {"scalar": "-1.0"}, 
      "inputs": [[332, 0, 0]]
    }, 
    {
      "op": "Activation", 
      "name": "activation43", 
      "attr": {"act_type": "sigmoid"}, 
      "inputs": [[334, 0, 0]]
    }, 
    {
      "op": "_mul", 
      "name": "_mul24", 
      "inputs": [[335, 0, 0], [321, 0, 0]]
    }, 
    {
      "op": "null", 
      "name": "input_values3_weight", 
      "attr": {
        "no_bias": "True", 
        "num_hidden": "250"
      }, 
      "inputs": []
    }, 
    {
      "op": "FullyConnected", 
      "name": "input_values3", 
      "attr": {
        "no_bias": "True", 
        "num_hidden": "250"
      }, 
      "inputs": [[330, 0, 0], [337, 0, 0]]
    }, 
    {
      "op": "Activation", 
      "name": "activation40", 
      "attr": {"act_type": "tanh"}, 
      "inputs": [[338, 0, 0]]
    }, 
    {
      "op": "null", 
      "name": "input_gate_values3_weight", 
      "attr": {
        "no_bias": "True", 
        "num_hidden": "250"
      }, 
      "inputs": []
    }, 
    {
      "op": "FullyConnected", 
      "name": "input_gate_values3", 
      "attr": {
        "no_bias": "True", 
        "num_hidden": "250"
      }, 
      "inputs": [[330, 0, 0], [340, 0, 0]]
    }, 
    {
      "op": "Activation", 
      "name": "activation41", 
      "attr": {"act_type": "sigmoid"}, 
      "inputs": [[341, 0, 0]]
    }, 
    {
      "op": "_mul", 
      "name": "_mul25", 
      "inputs": [[339, 0, 0], [342, 0, 0]]
    }, 
    {
      "op": "elemwise_add", 
      "name": "_plus8", 
      "inputs": [[336, 0, 0], [343, 0, 0]]
    }, 
    {
      "op": "Activation", 
      "name": "activation44", 
      "attr": {"act_type": "tanh"}, 
      "inputs": [[344, 0, 0]]
    }, 
    {
      "op": "_mul", 
      "name": "_mul26", 
      "inputs": [[333, 0, 0], [345, 0, 0]]
    }, 
    {
      "op": "Dropout", 
      "name": "dropout8", 
      "attr": {"p": "0.0"}, 
      "inputs": [[346, 0, 0]]
    }, 
    {
      "op": "null", 
      "name": "ip_bbox_unscaled3_weight", 
      "attr": {"num_hidden": "4"}, 
      "inputs": []
    }, 
    {
      "op": "null", 
      "name": "ip_bbox_unscaled3_bias", 
      "attr": {"num_hidden": "4"}, 
      "inputs": []
    }, 
    {
      "op": "FullyConnected", 
      "name": "ip_bbox_unscaled3", 
      "attr": {"num_hidden": "4"}, 
      "inputs": [[347, 0, 0], [348, 0, 0], [349, 0, 0]]
    }, 
    {
      "op": "_mul_scalar", 
      "name": "_mulscalar18", 
      "attr": {"scalar": "100"}, 
      "inputs": [[350, 0, 0]]
    }, 
    {
      "op": "Reshape", 
      "name": "reshape9", 
      "attr": {"target_shape": "(300, 4, 1, 1)"}, 
      "inputs": [[351, 0, 0]]
    }, 
    {
      "op": "Concat", 
      "name": "concat9", 
      "attr": {
        "dim": "1", 
        "num_args": "2"
      }, 
      "inputs": [[258, 0, 0], [346, 0, 0]]
    }, 
    {
      "op": "null", 
      "name": "output_gate_values4_weight", 
      "attr": {
        "no_bias": "True", 
        "num_hidden": "250"
      }, 
      "inputs": []
    }, 
    {
      "op": "FullyConnected", 
      "name": "output_gate_values4", 
      "attr": {
        "no_bias": "True", 
        "num_hidden": "250"
      }, 
      "inputs": [[353, 0, 0], [354, 0, 0]]
    }, 
    {
      "op": "Activation", 
      "name": "activation47", 
      "attr": {"act_type": "sigmoid"}, 
      "inputs": [[355, 0, 0]]
    }, 
    {
      "op": "_mul_scalar", 
      "name": "_mulscalar19", 
      "attr": {"scalar": "-1.0"}, 
      "inputs": [[355, 0, 0]]
    }, 
    {
      "op": "Activation", 
      "name": "activation48", 
      "attr": {"act_type": "sigmoid"}, 
      "inputs": [[357, 0, 0]]
    }, 
    {
      "op": "_mul", 
      "name": "_mul27", 
      "inputs": [[358, 0, 0], [344, 0, 0]]
    }, 
    {
      "op": "null", 
      "name": "input_values4_weight", 
      "attr": {
        "no_bias": "True", 
        "num_hidden": "250"
      }, 
      "inputs": []
    }, 
    {
      "op": "FullyConnected", 
      "name": "input_values4", 
      "attr": {
        "no_bias": "True", 
        "num_hidden": "250"
      }, 
      "inputs": [[353, 0, 0], [360, 0, 0]]
    }, 
    {
      "op": "Activation", 
      "name": "activation45", 
      "attr": {"act_type": "tanh"}, 
      "inputs": [[361, 0, 0]]
    }, 
    {
      "op": "null", 
      "name": "input_gate_values4_weight", 
      "attr": {
        "no_bias": "True", 
        "num_hidden": "250"
      }, 
      "inputs": []
    }, 
    {
      "op": "FullyConnected", 
      "name": "input_gate_values4", 
      "attr": {
        "no_bias": "True", 
        "num_hidden": "250"
      }, 
      "inputs": [[353, 0, 0], [363, 0, 0]]
    }, 
    {
      "op": "Activation", 
      "name": "activation46", 
      "attr": {"act_type": "sigmoid"}, 
      "inputs": [[364, 0, 0]]
    }, 
    {
      "op": "_mul", 
      "name": "_mul28", 
      "inputs": [[362, 0, 0], [365, 0, 0]]
    }, 
    {
      "op": "elemwise_add", 
      "name": "_plus9", 
      "inputs": [[359, 0, 0], [366, 0, 0]]
    }, 
    {
      "op": "Activation", 
      "name": "activation49", 
      "attr": {"act_type": "tanh"}, 
      "inputs": [[367, 0, 0]]
    }, 
    {
      "op": "_mul", 
      "name": "_mul29", 
      "inputs": [[356, 0, 0], [368, 0, 0]]
    }, 
    {
      "op": "Dropout", 
      "name": "dropout9", 
      "attr": {"p": "0.0"}, 
      "inputs": [[369, 0, 0]]
    }, 
    {
      "op": "null", 
      "name": "ip_bbox_unscaled4_weight", 
      "attr": {"num_hidden": "4"}, 
      "inputs": []
    }, 
    {
      "op": "null", 
      "name": "ip_bbox_unscaled4_bias", 
      "attr": {"num_hidden": "4"}, 
      "inputs": []
    }, 
    {
      "op": "FullyConnected", 
      "name": "ip_bbox_unscaled4", 
      "attr": {"num_hidden": "4"}, 
      "inputs": [[370, 0, 0], [371, 0, 0], [372, 0, 0]]
    }, 
    {
      "op": "_mul_scalar", 
      "name": "_mulscalar20", 
      "attr": {"scalar": "100"}, 
      "inputs": [[373, 0, 0]]
    }, 
    {
      "op": "Reshape", 
      "name": "reshape10", 
      "attr": {"target_shape": "(300, 4, 1, 1)"}, 
      "inputs": [[374, 0, 0]]
    }, 
    {
      "op": "null", 
      "name": "ip_conf0_weight", 
      "attr": {"num_hidden": "2"}, 
      "inputs": []
    }, 
    {
      "op": "null", 
      "name": "ip_conf0_bias", 
      "attr": {"num_hidden": "2"}, 
      "inputs": []
    }, 
    {
      "op": "FullyConnected", 
      "name": "ip_conf0", 
      "attr": {"num_hidden": "2"}, 
      "inputs": [[278, 0, 0], [376, 0, 0], [377, 0, 0]]
    }, 
    {
      "op": "SoftmaxActivation", 
      "name": "softmaxactivation5", 
      "inputs": [[378, 0, 0]]
    }, 
    {
      "op": "null", 
      "name": "ip_conf1_weight", 
      "attr": {"num_hidden": "2"}, 
      "inputs": []
    }, 
    {
      "op": "null", 
      "name": "ip_conf1_bias", 
      "attr": {"num_hidden": "2"}, 
      "inputs": []
    }, 
    {
      "op": "FullyConnected", 
      "name": "ip_conf1", 
      "attr": {"num_hidden": "2"}, 
      "inputs": [[301, 0, 0], [380, 0, 0], [381, 0, 0]]
    }, 
    {
      "op": "SoftmaxActivation", 
      "name": "softmaxactivation6", 
      "inputs": [[382, 0, 0]]
    }, 
    {
      "op": "null", 
      "name": "ip_conf2_weight", 
      "attr": {"num_hidden": "2"}, 
      "inputs": []
    }, 
    {
      "op": "null", 
      "name": "ip_conf2_bias", 
      "attr": {"num_hidden": "2"}, 
      "inputs": []
    }, 
    {
      "op": "FullyConnected", 
      "name": "ip_conf2", 
      "attr": {"num_hidden": "2"}, 
      "inputs": [[324, 0, 0], [384, 0, 0], [385, 0, 0]]
    }, 
    {
      "op": "SoftmaxActivation", 
      "name": "softmaxactivation7", 
      "inputs": [[386, 0, 0]]
    }, 
    {
      "op": "null", 
      "name": "ip_conf3_weight", 
      "attr": {"num_hidden": "2"}, 
      "inputs": []
    }, 
    {
      "op": "null", 
      "name": "ip_conf3_bias", 
      "attr": {"num_hidden": "2"}, 
      "inputs": []
    }, 
    {
      "op": "FullyConnected", 
      "name": "ip_conf3", 
      "attr": {"num_hidden": "2"}, 
      "inputs": [[347, 0, 0], [388, 0, 0], [389, 0, 0]]
    }, 
    {
      "op": "SoftmaxActivation", 
      "name": "softmaxactivation8", 
      "inputs": [[390, 0, 0]]
    }, 
    {
      "op": "null", 
      "name": "ip_conf4_weight", 
      "attr": {"num_hidden": "2"}, 
      "inputs": []
    }, 
    {
      "op": "null", 
      "name": "ip_conf4_bias", 
      "attr": {"num_hidden": "2"}, 
      "inputs": []
    }, 
    {
      "op": "FullyConnected", 
      "name": "ip_conf4", 
      "attr": {"num_hidden": "2"}, 
      "inputs": [[370, 0, 0], [392, 0, 0], [393, 0, 0]]
    }, 
    {
      "op": "SoftmaxActivation", 
      "name": "softmaxactivation9", 
      "inputs": [[394, 0, 0]]
    }
  ], 
  "arg_nodes": [
    0, 
    1, 
    2, 
    7, 
    8, 
    11, 
    12, 
    17, 
    18, 
    21, 
    22, 
    25, 
    26, 
    29, 
    30, 
    33, 
    34, 
    38, 
    39, 
    43, 
    44, 
    47, 
    48, 
    51, 
    52, 
    55, 
    56, 
    59, 
    60, 
    64, 
    65, 
    70, 
    71, 
    74, 
    75, 
    78, 
    79, 
    82, 
    83, 
    86, 
    87, 
    91, 
    92, 
    96, 
    97, 
    100, 
    101, 
    104, 
    105, 
    108, 
    109, 
    112, 
    113, 
    117, 
    118, 
    122, 
    123, 
    126, 
    127, 
    130, 
    131, 
    134, 
    135, 
    138, 
    139, 
    143, 
    144, 
    148, 
    149, 
    152, 
    153, 
    156, 
    157, 
    160, 
    161, 
    164, 
    165, 
    169, 
    170, 
    174, 
    175, 
    178, 
    179, 
    182, 
    183, 
    186, 
    187, 
    190, 
    191, 
    195, 
    196, 
    201, 
    202, 
    205, 
    206, 
    209, 
    210, 
    213, 
    214, 
    217, 
    218, 
    222, 
    223, 
    227, 
    228, 
    231, 
    232, 
    235, 
    236, 
    239, 
    240, 
    243, 
    244, 
    248, 
    249, 
    253, 
    254, 
    259, 
    261, 
    266, 
    268, 
    271, 
    279, 
    280, 
    285, 
    291, 
    294, 
    302, 
    303, 
    308, 
    314, 
    317, 
    325, 
    326, 
    331, 
    337, 
    340, 
    348, 
    349, 
    354, 
    360, 
    363, 
    371, 
    372, 
    376, 
    377, 
    380, 
    381, 
    384, 
    385, 
    388, 
    389, 
    392, 
    393
  ], 
  "node_row_ptr": [
    0, 
    1, 
    2, 
    3, 
    4, 
    5, 
    6, 
    8, 
    9, 
    10, 
    11, 
    12, 
    13, 
    14, 
    15, 
    16, 
    18, 
    19, 
    20, 
    21, 
    22, 
    23, 
    24, 
    25, 
    26, 
    27, 
    28, 
    29, 
    30, 
    31, 
    32, 
    33, 
    34, 
    35, 
    36, 
    37, 
    38, 
    39, 
    40, 
    41, 
    42, 
    43, 
    44, 
    45, 
    46, 
    47, 
    48, 
    49, 
    50, 
    51, 
    52, 
    53, 
    54, 
    55, 
    56, 
    57, 
    58, 
    59, 
    60, 
    61, 
    62, 
    63, 
    64, 
    65, 
    66, 
    67, 
    68, 
    69, 
    70, 
    71, 
    72, 
    73, 
    74, 
    75, 
    76, 
    77, 
    78, 
    79, 
    80, 
    81, 
    82, 
    83, 
    84, 
    85, 
    86, 
    87, 
    88, 
    89, 
    90, 
    91, 
    92, 
    93, 
    94, 
    95, 
    96, 
    97, 
    98, 
    99, 
    100, 
    101, 
    102, 
    103, 
    104, 
    105, 
    106, 
    107, 
    108, 
    109, 
    110, 
    111, 
    112, 
    113, 
    114, 
    115, 
    116, 
    117, 
    118, 
    119, 
    120, 
    121, 
    122, 
    123, 
    124, 
    125, 
    126, 
    127, 
    128, 
    129, 
    130, 
    131, 
    132, 
    133, 
    134, 
    135, 
    136, 
    137, 
    138, 
    139, 
    140, 
    141, 
    142, 
    143, 
    144, 
    145, 
    146, 
    147, 
    148, 
    149, 
    150, 
    151, 
    152, 
    153, 
    154, 
    155, 
    156, 
    157, 
    158, 
    159, 
    160, 
    161, 
    162, 
    163, 
    164, 
    165, 
    166, 
    167, 
    168, 
    169, 
    170, 
    171, 
    172, 
    173, 
    174, 
    175, 
    176, 
    177, 
    178, 
    179, 
    180, 
    181, 
    182, 
    183, 
    184, 
    185, 
    186, 
    187, 
    188, 
    189, 
    190, 
    191, 
    192, 
    193, 
    194, 
    195, 
    196, 
    197, 
    198, 
    199, 
    200, 
    201, 
    202, 
    203, 
    204, 
    205, 
    206, 
    207, 
    208, 
    209, 
    210, 
    211, 
    212, 
    213, 
    214, 
    215, 
    216, 
    217, 
    218, 
    219, 
    220, 
    221, 
    222, 
    223, 
    224, 
    225, 
    226, 
    227, 
    228, 
    229, 
    230, 
    231, 
    232, 
    233, 
    234, 
    235, 
    236, 
    237, 
    238, 
    239, 
    240, 
    241, 
    242, 
    243, 
    244, 
    245, 
    246, 
    247, 
    248, 
    249, 
    250, 
    251, 
    252, 
    253, 
    254, 
    255, 
    256, 
    257, 
    258, 
    259, 
    260, 
    261, 
    262, 
    263, 
    264, 
    265, 
    266, 
    267, 
    268, 
    269, 
    270, 
    271, 
    272, 
    273, 
    274, 
    275, 
    276, 
    277, 
    278, 
    279, 
    280, 
    282, 
    283, 
    284, 
    285, 
    286, 
    287, 
    288, 
    289, 
    290, 
    291, 
    292, 
    293, 
    294, 
    295, 
    296, 
    297, 
    298, 
    299, 
    300, 
    301, 
    302, 
    303, 
    304, 
    306, 
    307, 
    308, 
    309, 
    310, 
    311, 
    312, 
    313, 
    314, 
    315, 
    316, 
    317, 
    318, 
    319, 
    320, 
    321, 
    322, 
    323, 
    324, 
    325, 
    326, 
    327, 
    328, 
    330, 
    331, 
    332, 
    333, 
    334, 
    335, 
    336, 
    337, 
    338, 
    339, 
    340, 
    341, 
    342, 
    343, 
    344, 
    345, 
    346, 
    347, 
    348, 
    349, 
    350, 
    351, 
    352, 
    354, 
    355, 
    356, 
    357, 
    358, 
    359, 
    360, 
    361, 
    362, 
    363, 
    364, 
    365, 
    366, 
    367, 
    368, 
    369, 
    370, 
    371, 
    372, 
    373, 
    374, 
    375, 
    376, 
    378, 
    379, 
    380, 
    381, 
    382, 
    383, 
    384, 
    385, 
    386, 
    387, 
    388, 
    389, 
    390, 
    391, 
    392, 
    393, 
    394, 
    395, 
    396, 
    397, 
    398, 
    399, 
    400, 
    401, 
    402, 
    403
  ], 
  "heads": [
    [283, 0, 0], 
    [306, 0, 0], 
    [329, 0, 0], 
    [352, 0, 0], 
    [375, 0, 0], 
    [379, 0, 0], 
    [383, 0, 0], 
    [387, 0, 0], 
    [391, 0, 0], 
    [395, 0, 0], 
    [255, 0, 0]
  ], 
  "attrs": {"mxnet_version": ["int", 904]}
}